node {
  name: "x"
  op: "Placeholder"
  attr {
    key: "dtype"
    value {
      type: DT_FLOAT
    }
  }
  attr {
    key: "shape"
    value {
      shape {
        dim {
          size: -1
        }
        dim {
          size: 5
        }
        dim {
          size: 5
        }
        dim {
          size: 31
        }
      }
    }
  }
}
node {
  name: "cnn_model/9939"
  op: "Const"
  attr {
    key: "dtype"
    value {
      type: DT_FLOAT
    }
  }
  attr {
    key: "value"
    value {
      tensor {
        dtype: DT_FLOAT
        tensor_shape {
          dim {
            size: 20
          }
        }
        tensor_content: "…"
      }
    }
  }
}
node {
  name: "Func/cnn_model/StatefulPartitionedCall/input/_63"
  op: "Identity"
  input: "cnn_model/9939"
  attr {
    key: "T"
    value {
      type: DT_FLOAT
    }
  }
}
node {
  name: "Func/cnn_model/StatefulPartitionedCall/input/_0"
  op: "Identity"
  input: "x"
  attr {
    key: "T"
    value {
      type: DT_FLOAT
    }
  }
}
node {
  name: "cnn_model/9841"
  op: "Const"
  attr {
    key: "dtype"
    value {
      type: DT_FLOAT
    }
  }
  attr {
    key: "value"
    value {
      tensor {
        dtype: DT_FLOAT
        tensor_shape {
          dim {
            size: 40
          }
        }
        tensor_content: "…"
      }
    }
  }
}
node {
  name: "Func/cnn_model/StatefulPartitionedCall/input/_14"
  op: "Identity"
  input: "cnn_model/9841"
  attr {
    key: "T"
    value {
      type: DT_FLOAT
    }
  }
}
node {
  name: "cnn_model/9855"
  op: "Const"
  attr {
    key: "dtype"
    value {
      type: DT_FLOAT
    }
  }
  attr {
    key: "value"
    value {
      tensor {
        dtype: DT_FLOAT
        tensor_shape {
          dim {
            size: 20
          }
        }
        tensor_content: "…"
      }
    }
  }
}
node {
  name: "Func/cnn_model/StatefulPartitionedCall/input/_21"
  op: "Identity"
  input: "cnn_model/9855"
  attr {
    key: "T"
    value {
      type: DT_FLOAT
    }
  }
}
node {
  name: "cnn_model/9881"
  op: "Const"
  attr {
    key: "dtype"
    value {
      type: DT_FLOAT
    }
  }
  attr {
    key: "value"
    value {
      tensor {
        dtype: DT_FLOAT
        tensor_shape {
          dim {
            size: 20
          }
        }
        tensor_content: "…"
      }
    }
  }
}
node {
  name: "Func/cnn_model/StatefulPartitionedCall/input/_34"
  op: "Identity"
  input: "cnn_model/9881"
  attr {
    key: "T"
    value {
      type: DT_FLOAT
    }
  }
}
node {
  name: "cnn_model/9891"
  op: "Const"
  attr {
    key: "dtype"
    value {
      type: DT_FLOAT
    }
  }
  attr {
    key: "value"
    value {
      tensor {
        dtype: DT_FLOAT
        tensor_shape {
          dim {
            size: 20
          }
        }
        tensor_content: "…"
      }
    }
  }
}
node {
  name: "Func/cnn_model/StatefulPartitionedCall/input/_39"
  op: "Identity"
  input: "cnn_model/9891"
  attr {
    key: "T"
    value {
      type: DT_FLOAT
    }
  }
}
node {
  name: "cnn_model/9903"
  op: "Const"
  attr {
    key: "dtype"
    value {
      type: DT_FLOAT
    }
  }
  attr {
    key: "value"
    value {
      tensor {
        dtype: DT_FLOAT
        tensor_shape {
          dim {
            size: 40
          }
        }
        tensor_content: "…"
      }
    }
  }
}
node {
  name: "Func/cnn_model/StatefulPartitionedCall/input/_45"
  op: "Identity"
  input: "cnn_model/9903"
  attr {
    key: "T"
    value {
      type: DT_FLOAT
    }
  }
}
node {
  name: "cnn_model/9915"
  op: "Const"
  attr {
    key: "dtype"
    value {
      type: DT_FLOAT
    }
  }
  attr {
    key: "value"
    value {
      tensor {
        dtype: DT_FLOAT
        tensor_shape {
          dim {
            size: 40
          }
        }
        tensor_content: "…"
      }
    }
  }
}
node {
  name: "Func/cnn_model/StatefulPartitionedCall/input/_51"
  op: "Identity"
  input: "cnn_model/9915"
  attr {
    key: "T"
    value {
      type: DT_FLOAT
    }
  }
}
node {
  name: "cnn_model/9895"
  op: "Const"
  attr {
    key: "dtype"
    value {
      type: DT_FLOAT
    }
  }
  attr {
    key: "value"
    value {
      tensor {
        dtype: DT_FLOAT
        tensor_shape {
          dim {
            size: 20
          }
        }
        tensor_content: "…"
      }
    }
  }
}
node {
  name: "Func/cnn_model/StatefulPartitionedCall/input/_41"
  op: "Identity"
  input: "cnn_model/9895"
  attr {
    key: "T"
    value {
      type: DT_FLOAT
    }
  }
}
node {
  name: "cnn_model/9909"
  op: "Const"
  attr {
    key: "dtype"
    value {
      type: DT_FLOAT
    }
  }
  attr {
    key: "value"
    value {
      tensor {
        dtype: DT_FLOAT
        tensor_shape {
          dim {
            size: 40
          }
        }
        tensor_content: "…"
      }
    }
  }
}
node {
  name: "Func/cnn_model/StatefulPartitionedCall/input/_48"
  op: "Identity"
  input: "cnn_model/9909"
  attr {
    key: "T"
    value {
      type: DT_FLOAT
    }
  }
}
node {
  name: "cnn_model/9919"
  op: "Const"
  attr {
    key: "dtype"
    value {
      type: DT_FLOAT
    }
  }
  attr {
    key: "value"
    value {
      tensor {
        dtype: DT_FLOAT
        tensor_shape {
          dim {
            size: 40
          }
        }
        tensor_content: "…"
      }
    }
  }
}
node {
  name: "Func/cnn_model/StatefulPartitionedCall/input/_53"
  op: "Identity"
  input: "cnn_model/9919"
  attr {
    key: "T"
    value {
      type: DT_FLOAT
    }
  }
}
node {
  name: "cnn_model/9821"
  op: "Const"
  attr {
    key: "dtype"
    value {
      type: DT_FLOAT
    }
  }
  attr {
    key: "value"
    value {
      tensor {
        dtype: DT_FLOAT
        tensor_shape {
          dim {
            size: 80
          }
        }
        tensor_content: "…"
      }
    }
  }
}
node {
  name: "Func/cnn_model/StatefulPartitionedCall/input/_4"
  op: "Identity"
  input: "cnn_model/9821"
  attr {
    key: "T"
    value {
      type: DT_FLOAT
    }
  }
}
node {
  name: "cnn_model/9905"
  op: "Const"
  attr {
    key: "dtype"
    value {
      type: DT_FLOAT
    }
  }
  attr {
    key: "value"
    value {
      tensor {
        dtype: DT_FLOAT
        tensor_shape {
          dim {
            size: 40
          }
        }
        tensor_content: "…"
      }
    }
  }
}
node {
  name: "Func/cnn_model/StatefulPartitionedCall/input/_46"
  op: "Identity"
  input: "cnn_model/9905"
  attr {
    key: "T"
    value {
      type: DT_FLOAT
    }
  }
}
node {
  name: "cnn_model/9917"
  op: "Const"
  attr {
    key: "dtype"
    value {
      type: DT_FLOAT
    }
  }
  attr {
    key: "value"
    value {
      tensor {
        dtype: DT_FLOAT
        tensor_shape {
          dim {
            size: 40
          }
        }
        tensor_content: "…"
      }
    }
  }
}
node {
  name: "Func/cnn_model/StatefulPartitionedCall/input/_52"
  op: "Identity"
  input: "cnn_model/9917"
  attr {
    key: "T"
    value {
      type: DT_FLOAT
    }
  }
}
node {
  name: "cnn_model/9869"
  op: "Const"
  attr {
    key: "dtype"
    value {
      type: DT_FLOAT
    }
  }
  attr {
    key: "value"
    value {
      tensor {
        dtype: DT_FLOAT
        tensor_shape {
          dim {
            size: 20
          }
        }
        tensor_content: "…"
      }
    }
  }
}
node {
  name: "Func/cnn_model/StatefulPartitionedCall/input/_28"
  op: "Identity"
  input: "cnn_model/9869"
  attr {
    key: "T"
    value {
      type: DT_FLOAT
    }
  }
}
node {
  name: "cnn_model/9893"
  op: "Const"
  attr {
    key: "dtype"
    value {
      type: DT_FLOAT
    }
  }
  attr {
    key: "value"
    value {
      tensor {
        dtype: DT_FLOAT
        tensor_shape {
          dim {
            size: 20
          }
        }
        tensor_content: "…"
      }
    }
  }
}
node {
  name: "Func/cnn_model/StatefulPartitionedCall/input/_40"
  op: "Identity"
  input: "cnn_model/9893"
  attr {
    key: "T"
    value {
      type: DT_FLOAT
    }
  }
}
node {
  name: "cnn_model/9907"
  op: "Const"
  attr {
    key: "dtype"
    value {
      type: DT_FLOAT
    }
  }
  attr {
    key: "value"
    value {
      tensor {
        dtype: DT_FLOAT
        tensor_shape {
          dim {
            size: 40
          }
        }
        tensor_content: "…"
      }
    }
  }
}
node {
  name: "Func/cnn_model/StatefulPartitionedCall/input/_47"
  op: "Identity"
  input: "cnn_model/9907"
  attr {
    key: "T"
    value {
      type: DT_FLOAT
    }
  }
}
node {
  name: "cnn_model/9921"
  op: "Const"
  attr {
    key: "dtype"
    value {
      type: DT_FLOAT
    }
  }
  attr {
    key: "value"
    value {
      tensor {
        dtype: DT_FLOAT
        tensor_shape {
          dim {
            size: 40
          }
        }
        tensor_content: "…"
      }
    }
  }
}
node {
  name: "Func/cnn_model/StatefulPartitionedCall/input/_54"
  op: "Identity"
  input: "cnn_model/9921"
  attr {
    key: "T"
    value {
      type: DT_FLOAT
    }
  }
}
node {
  name: "cnn_model/9857"
  op: "Const"
  attr {
    key: "dtype"
    value {
      type: DT_FLOAT
    }
  }
  attr {
    key: "value"
    value {
      tensor {
        dtype: DT_FLOAT
        tensor_shape {
          dim {
            size: 20
          }
        }
        tensor_content: "…"
      }
    }
  }
}
node {
  name: "Func/cnn_model/StatefulPartitionedCall/input/_22"
  op: "Identity"
  input: "cnn_model/9857"
  attr {
    key: "T"
    value {
      type: DT_FLOAT
    }
  }
}
node {
  name: "cnn_model/9871"
  op: "Const"
  attr {
    key: "dtype"
    value {
      type: DT_FLOAT
    }
  }
  attr {
    key: "value"
    value {
      tensor {
        dtype: DT_FLOAT
        tensor_shape {
          dim {
            size: 20
          }
        }
        tensor_content: "…"
      }
    }
  }
}
node {
  name: "Func/cnn_model/StatefulPartitionedCall/input/_29"
  op: "Identity"
  input: "cnn_model/9871"
  attr {
    key: "T"
    value {
      type: DT_FLOAT
    }
  }
}
node {
  name: "cnn_model/9883"
  op: "Const"
  attr {
    key: "dtype"
    value {
      type: DT_FLOAT
    }
  }
  attr {
    key: "value"
    value {
      tensor {
        dtype: DT_FLOAT
        tensor_shape {
          dim {
            size: 20
          }
        }
        tensor_content: "…"
      }
    }
  }
}
node {
  name: "Func/cnn_model/StatefulPartitionedCall/input/_35"
  op: "Identity"
  input: "cnn_model/9883"
  attr {
    key: "T"
    value {
      type: DT_FLOAT
    }
  }
}
node {
  name: "cnn_model/9911"
  op: "Const"
  attr {
    key: "dtype"
    value {
      type: DT_FLOAT
    }
  }
  attr {
    key: "value"
    value {
      tensor {
        dtype: DT_FLOAT
        tensor_shape {
          dim {
            size: 40
          }
          dim {
            size: 40
          }
        }
        tensor_content: "…"
      }
    }
  }
}
node {
  name: "Func/cnn_model/StatefulPartitionedCall/input/_49"
  op: "Identity"
  input: "cnn_model/9911"
  attr {
    key: "T"
    value {
      type: DT_FLOAT
    }
  }
}
node {
  name: "cnn_model/9815"
  op: "Const"
  attr {
    key: "dtype"
    value {
      type: DT_FLOAT
    }
  }
  attr {
    key: "value"
    value {
      tensor {
        dtype: DT_FLOAT
        tensor_shape {
          dim {
            size: 1
          }
          dim {
            size: 1
          }
          dim {
            size: 31
          }
          dim {
            size: 80
          }
        }
        tensor_content: "…"
      }
    }
  }
}
node {
  name: "Func/cnn_model/StatefulPartitionedCall/input/_1"
  op: "Identity"
  input: "cnn_model/9815"
  attr {
    key: "T"
    value {
      type: DT_FLOAT
    }
  }
}
node {
  name: "cnn_model/9843"
  op: "Const"
  attr {
    key: "dtype"
    value {
      type: DT_FLOAT
    }
  }
  attr {
    key: "value"
    value {
      tensor {
        dtype: DT_FLOAT
        tensor_shape {
          dim {
            size: 40
          }
        }
        tensor_content: "…"
      }
    }
  }
}
node {
  name: "Func/cnn_model/StatefulPartitionedCall/input/_15"
  op: "Identity"
  input: "cnn_model/9843"
  attr {
    key: "T"
    value {
      type: DT_FLOAT
    }
  }
}
node {
  name: "cnn_model/9859"
  op: "Const"
  attr {
    key: "dtype"
    value {
      type: DT_FLOAT
    }
  }
  attr {
    key: "value"
    value {
      tensor {
        dtype: DT_FLOAT
        tensor_shape {
          dim {
            size: 20
          }
        }
        tensor_content: "…"
      }
    }
  }
}
node {
  name: "Func/cnn_model/StatefulPartitionedCall/input/_23"
  op: "Identity"
  input: "cnn_model/9859"
  attr {
    key: "T"
    value {
      type: DT_FLOAT
    }
  }
}
node {
  name: "cnn_model/9819"
  op: "Const"
  attr {
    key: "dtype"
    value {
      type: DT_FLOAT
    }
  }
  attr {
    key: "value"
    value {
      tensor {
        dtype: DT_FLOAT
        tensor_shape {
          dim {
            size: 80
          }
        }
        tensor_content: "…"
      }
    }
  }
}
node {
  name: "Func/cnn_model/StatefulPartitionedCall/input/_3"
  op: "Identity"
  input: "cnn_model/9819"
  attr {
    key: "T"
    value {
      type: DT_FLOAT
    }
  }
}
node {
  name: "cnn_model/9885"
  op: "Const"
  attr {
    key: "dtype"
    value {
      type: DT_FLOAT
    }
  }
  attr {
    key: "value"
    value {
      tensor {
        dtype: DT_FLOAT
        tensor_shape {
          dim {
            size: 20
          }
        }
        tensor_content: "…"
      }
    }
  }
}
node {
  name: "Func/cnn_model/StatefulPartitionedCall/input/_36"
  op: "Identity"
  input: "cnn_model/9885"
  attr {
    key: "T"
    value {
      type: DT_FLOAT
    }
  }
}
node {
  name: "cnn_model/9897"
  op: "Const"
  attr {
    key: "dtype"
    value {
      type: DT_FLOAT
    }
  }
  attr {
    key: "value"
    value {
      tensor {
        dtype: DT_FLOAT
        tensor_shape {
          dim {
            size: 20
          }
        }
        tensor_content: "…"
      }
    }
  }
}
node {
  name: "Func/cnn_model/StatefulPartitionedCall/input/_42"
  op: "Identity"
  input: "cnn_model/9897"
  attr {
    key: "T"
    value {
      type: DT_FLOAT
    }
  }
}
node {
  name: "cnn_model/9823"
  op: "Const"
  attr {
    key: "dtype"
    value {
      type: DT_FLOAT
    }
  }
  attr {
    key: "value"
    value {
      tensor {
        dtype: DT_FLOAT
        tensor_shape {
          dim {
            size: 80
          }
        }
        tensor_content: "…"
      }
    }
  }
}
node {
  name: "Func/cnn_model/StatefulPartitionedCall/input/_5"
  op: "Identity"
  input: "cnn_model/9823"
  attr {
    key: "T"
    value {
      type: DT_FLOAT
    }
  }
}
node {
  name: "cnn_model/9837"
  op: "Const"
  attr {
    key: "dtype"
    value {
      type: DT_FLOAT
    }
  }
  attr {
    key: "value"
    value {
      tensor {
        dtype: DT_FLOAT
        tensor_shape {
          dim {
            size: 60
          }
        }
        tensor_content: "…"
      }
    }
  }
}
node {
  name: "Func/cnn_model/StatefulPartitionedCall/input/_12"
  op: "Identity"
  input: "cnn_model/9837"
  attr {
    key: "T"
    value {
      type: DT_FLOAT
    }
  }
}
node {
  name: "cnn_model/9851"
  op: "Const"
  attr {
    key: "dtype"
    value {
      type: DT_FLOAT
    }
  }
  attr {
    key: "value"
    value {
      tensor {
        dtype: DT_FLOAT
        tensor_shape {
          dim {
            size: 1
          }
          dim {
            size: 1
          }
          dim {
            size: 40
          }
          dim {
            size: 20
          }
        }
        tensor_content: "…"
      }
    }
  }
}
node {
  name: "Func/cnn_model/StatefulPartitionedCall/input/_19"
  op: "Identity"
  input: "cnn_model/9851"
  attr {
    key: "T"
    value {
      type: DT_FLOAT
    }
  }
}
node {
  name: "cnn_model/9861"
  op: "Const"
  attr {
    key: "dtype"
    value {
      type: DT_FLOAT
    }
  }
  attr {
    key: "value"
    value {
      tensor {
        dtype: DT_FLOAT
        tensor_shape {
          dim {
            size: 20
          }
        }
        tensor_content: "…"
      }
    }
  }
}
node {
  name: "Func/cnn_model/StatefulPartitionedCall/input/_24"
  op: "Identity"
  input: "cnn_model/9861"
  attr {
    key: "T"
    value {
      type: DT_FLOAT
    }
  }
}
node {
  name: "cnn_model/9873"
  op: "Const"
  attr {
    key: "dtype"
    value {
      type: DT_FLOAT
    }
  }
  attr {
    key: "value"
    value {
      tensor {
        dtype: DT_FLOAT
        tensor_shape {
          dim {
            size: 20
          }
        }
        tensor_content: "…"
      }
    }
  }
}
node {
  name: "Func/cnn_model/StatefulPartitionedCall/input/_30"
  op: "Identity"
  input: "cnn_model/9873"
  attr {
    key: "T"
    value {
      type: DT_FLOAT
    }
  }
}
node {
  name: "cnn_model/9887"
  op: "Const"
  attr {
    key: "dtype"
    value {
      type: DT_FLOAT
    }
  }
  attr {
    key: "value"
    value {
      tensor {
        dtype: DT_FLOAT
        tensor_shape {
          dim {
            size: 2
          }
          dim {
            size: 2
          }
          dim {
            size: 20
          }
          dim {
            size: 20
          }
        }
        tensor_content: "…"
      }
    }
  }
}
node {
  name: "Func/cnn_model/StatefulPartitionedCall/input/_37"
  op: "Identity"
  input: "cnn_model/9887"
  attr {
    key: "T"
    value {
      type: DT_FLOAT
    }
  }
}
node {
  name: "cnn_model/9899"
  op: "Const"
  attr {
    key: "dtype"
    value {
      type: DT_FLOAT
    }
  }
  attr {
    key: "value"
    value {
      tensor {
        dtype: DT_FLOAT
        tensor_shape {
          dim {
            size: 2
          }
          dim {
            size: 2
          }
          dim {
            size: 20
          }
          dim {
            size: 40
          }
        }
        tensor_content: "…"
      }
    }
  }
}
node {
  name: "Func/cnn_model/StatefulPartitionedCall/input/_43"
  op: "Identity"
  input: "cnn_model/9899"
  attr {
    key: "T"
    value {
      type: DT_FLOAT
    }
  }
}
node {
  name: "cnn_model/9913"
  op: "Const"
  attr {
    key: "dtype"
    value {
      type: DT_FLOAT
    }
  }
  attr {
    key: "value"
    value {
      tensor {
        dtype: DT_FLOAT
        tensor_shape {
          dim {
            size: 40
          }
        }
        tensor_content: "…"
      }
    }
  }
}
node {
  name: "Func/cnn_model/StatefulPartitionedCall/input/_50"
  op: "Identity"
  input: "cnn_model/9913"
  attr {
    key: "T"
    value {
      type: DT_FLOAT
    }
  }
}
node {
  name: "cnn_model/9927"
  op: "Const"
  attr {
    key: "dtype"
    value {
      type: DT_FLOAT
    }
  }
  attr {
    key: "value"
    value {
      tensor {
        dtype: DT_FLOAT
        tensor_shape {
          dim {
            size: 40
          }
        }
        tensor_content: "…"
      }
    }
  }
}
node {
  name: "Func/cnn_model/StatefulPartitionedCall/input/_57"
  op: "Identity"
  input: "cnn_model/9927"
  attr {
    key: "T"
    value {
      type: DT_FLOAT
    }
  }
}
node {
  name: "cnn_model/9833"
  op: "Const"
  attr {
    key: "dtype"
    value {
      type: DT_FLOAT
    }
  }
  attr {
    key: "value"
    value {
      tensor {
        dtype: DT_FLOAT
        tensor_shape {
          dim {
            size: 60
          }
        }
        tensor_content: "…"
      }
    }
  }
}
node {
  name: "Func/cnn_model/StatefulPartitionedCall/input/_10"
  op: "Identity"
  input: "cnn_model/9833"
  attr {
    key: "T"
    value {
      type: DT_FLOAT
    }
  }
}
node {
  name: "cnn_model/9817"
  op: "Const"
  attr {
    key: "dtype"
    value {
      type: DT_FLOAT
    }
  }
  attr {
    key: "value"
    value {
      tensor {
        dtype: DT_FLOAT
        tensor_shape {
          dim {
            size: 80
          }
        }
        tensor_content: "…"
      }
    }
  }
}
node {
  name: "Func/cnn_model/StatefulPartitionedCall/input/_2"
  op: "Identity"
  input: "cnn_model/9817"
  attr {
    key: "T"
    value {
      type: DT_FLOAT
    }
  }
}
node {
  name: "cnn_model/9865"
  op: "Const"
  attr {
    key: "dtype"
    value {
      type: DT_FLOAT
    }
  }
  attr {
    key: "value"
    value {
      tensor {
        dtype: DT_FLOAT
        tensor_shape {
          dim {
            size: 20
          }
        }
        tensor_content: "…"
      }
    }
  }
}
node {
  name: "Func/cnn_model/StatefulPartitionedCall/input/_26"
  op: "Identity"
  input: "cnn_model/9865"
  attr {
    key: "T"
    value {
      type: DT_FLOAT
    }
  }
}
node {
  name: "cnn_model/9875"
  op: "Const"
  attr {
    key: "dtype"
    value {
      type: DT_FLOAT
    }
  }
  attr {
    key: "value"
    value {
      tensor {
        dtype: DT_FLOAT
        tensor_shape {
          dim {
            size: 2
          }
          dim {
            size: 2
          }
          dim {
            size: 20
          }
          dim {
            size: 20
          }
        }
        tensor_content: "…"
      }
    }
  }
}
node {
  name: "Func/cnn_model/StatefulPartitionedCall/input/_31"
  op: "Identity"
  input: "cnn_model/9875"
  attr {
    key: "T"
    value {
      type: DT_FLOAT
    }
  }
}
node {
  name: "cnn_model/9889"
  op: "Const"
  attr {
    key: "dtype"
    value {
      type: DT_FLOAT
    }
  }
  attr {
    key: "value"
    value {
      tensor {
        dtype: DT_FLOAT
        tensor_shape {
          dim {
            size: 20
          }
        }
        tensor_content: "…"
      }
    }
  }
}
node {
  name: "Func/cnn_model/StatefulPartitionedCall/input/_38"
  op: "Identity"
  input: "cnn_model/9889"
  attr {
    key: "T"
    value {
      type: DT_FLOAT
    }
  }
}
node {
  name: "cnn_model/9901"
  op: "Const"
  attr {
    key: "dtype"
    value {
      type: DT_FLOAT
    }
  }
  attr {
    key: "value"
    value {
      tensor {
        dtype: DT_FLOAT
        tensor_shape {
          dim {
            size: 40
          }
        }
        tensor_content: "…"
      }
    }
  }
}
node {
  name: "Func/cnn_model/StatefulPartitionedCall/input/_44"
  op: "Identity"
  input: "cnn_model/9901"
  attr {
    key: "T"
    value {
      type: DT_FLOAT
    }
  }
}
node {
  name: "cnn_model/9923"
  op: "Const"
  attr {
    key: "dtype"
    value {
      type: DT_FLOAT
    }
  }
  attr {
    key: "value"
    value {
      tensor {
        dtype: DT_FLOAT
        tensor_shape {
          dim {
            size: 40
          }
          dim {
            size: 40
          }
        }
        tensor_content: "…"
      }
    }
  }
}
node {
  name: "Func/cnn_model/StatefulPartitionedCall/input/_55"
  op: "Identity"
  input: "cnn_model/9923"
  attr {
    key: "T"
    value {
      type: DT_FLOAT
    }
  }
}
node {
  name: "cnn_model/9929"
  op: "Const"
  attr {
    key: "dtype"
    value {
      type: DT_FLOAT
    }
  }
  attr {
    key: "value"
    value {
      tensor {
        dtype: DT_FLOAT
        tensor_shape {
          dim {
            size: 40
          }
        }
        tensor_content: "…"
      }
    }
  }
}
node {
  name: "Func/cnn_model/StatefulPartitionedCall/input/_58"
  op: "Identity"
  input: "cnn_model/9929"
  attr {
    key: "T"
    value {
      type: DT_FLOAT
    }
  }
}
node {
  name: "cnn_model/9941"
  op: "Const"
  attr {
    key: "dtype"
    value {
      type: DT_FLOAT
    }
  }
  attr {
    key: "value"
    value {
      tensor {
        dtype: DT_FLOAT
        tensor_shape {
          dim {
            size: 20
          }
        }
        tensor_content: "…"
      }
    }
  }
}
node {
  name: "Func/cnn_model/StatefulPartitionedCall/input/_64"
  op: "Identity"
  input: "cnn_model/9941"
  attr {
    key: "T"
    value {
      type: DT_FLOAT
    }
  }
}
node {
  name: "cnn_model/9835"
  op: "Const"
  attr {
    key: "dtype"
    value {
      type: DT_FLOAT
    }
  }
  attr {
    key: "value"
    value {
      tensor {
        dtype: DT_FLOAT
        tensor_shape {
          dim {
            size: 60
          }
        }
        tensor_content: "…"
      }
    }
  }
}
node {
  name: "Func/cnn_model/StatefulPartitionedCall/input/_11"
  op: "Identity"
  input: "cnn_model/9835"
  attr {
    key: "T"
    value {
      type: DT_FLOAT
    }
  }
}
node {
  name: "cnn_model/9845"
  op: "Const"
  attr {
    key: "dtype"
    value {
      type: DT_FLOAT
    }
  }
  attr {
    key: "value"
    value {
      tensor {
        dtype: DT_FLOAT
        tensor_shape {
          dim {
            size: 40
          }
        }
        tensor_content: "…"
      }
    }
  }
}
node {
  name: "Func/cnn_model/StatefulPartitionedCall/input/_16"
  op: "Identity"
  input: "cnn_model/9845"
  attr {
    key: "T"
    value {
      type: DT_FLOAT
    }
  }
}
node {
  name: "cnn_model/9867"
  op: "Const"
  attr {
    key: "dtype"
    value {
      type: DT_FLOAT
    }
  }
  attr {
    key: "value"
    value {
      tensor {
        dtype: DT_FLOAT
        tensor_shape {
          dim {
            size: 20
          }
        }
        tensor_content: "…"
      }
    }
  }
}
node {
  name: "Func/cnn_model/StatefulPartitionedCall/input/_27"
  op: "Identity"
  input: "cnn_model/9867"
  attr {
    key: "T"
    value {
      type: DT_FLOAT
    }
  }
}
node {
  name: "cnn_model/9877"
  op: "Const"
  attr {
    key: "dtype"
    value {
      type: DT_FLOAT
    }
  }
  attr {
    key: "value"
    value {
      tensor {
        dtype: DT_FLOAT
        tensor_shape {
          dim {
            size: 20
          }
        }
        tensor_content: "…"
      }
    }
  }
}
node {
  name: "Func/cnn_model/StatefulPartitionedCall/input/_32"
  op: "Identity"
  input: "cnn_model/9877"
  attr {
    key: "T"
    value {
      type: DT_FLOAT
    }
  }
}
node {
  name: "cnn_model/9925"
  op: "Const"
  attr {
    key: "dtype"
    value {
      type: DT_FLOAT
    }
  }
  attr {
    key: "value"
    value {
      tensor {
        dtype: DT_FLOAT
        tensor_shape {
          dim {
            size: 40
          }
        }
        tensor_content: "…"
      }
    }
  }
}
node {
  name: "Func/cnn_model/StatefulPartitionedCall/input/_56"
  op: "Identity"
  input: "cnn_model/9925"
  attr {
    key: "T"
    value {
      type: DT_FLOAT
    }
  }
}
node {
  name: "cnn_model/9931"
  op: "Const"
  attr {
    key: "dtype"
    value {
      type: DT_FLOAT
    }
  }
  attr {
    key: "value"
    value {
      tensor {
        dtype: DT_FLOAT
        tensor_shape {
          dim {
            size: 40
          }
        }
        tensor_content: "…"
      }
    }
  }
}
node {
  name: "Func/cnn_model/StatefulPartitionedCall/input/_59"
  op: "Identity"
  input: "cnn_model/9931"
  attr {
    key: "T"
    value {
      type: DT_FLOAT
    }
  }
}
node {
  name: "cnn_model/9943"
  op: "Const"
  attr {
    key: "dtype"
    value {
      type: DT_FLOAT
    }
  }
  attr {
    key: "value"
    value {
      tensor {
        dtype: DT_FLOAT
        tensor_shape {
          dim {
            size: 20
          }
        }
        tensor_content: "…"
      }
    }
  }
}
node {
  name: "Func/cnn_model/StatefulPartitionedCall/input/_65"
  op: "Identity"
  input: "cnn_model/9943"
  attr {
    key: "T"
    value {
      type: DT_FLOAT
    }
  }
}
node {
  name: "cnn_model/9827"
  op: "Const"
  attr {
    key: "dtype"
    value {
      type: DT_FLOAT
    }
  }
  attr {
    key: "value"
    value {
      tensor {
        dtype: DT_FLOAT
        tensor_shape {
          dim {
            size: 1
          }
          dim {
            size: 1
          }
          dim {
            size: 80
          }
          dim {
            size: 60
          }
        }
        tensor_content: "…"
      }
    }
  }
}
node {
  name: "Func/cnn_model/StatefulPartitionedCall/input/_7"
  op: "Identity"
  input: "cnn_model/9827"
  attr {
    key: "T"
    value {
      type: DT_FLOAT
    }
  }
}
node {
  name: "cnn_model/9839"
  op: "Const"
  attr {
    key: "dtype"
    value {
      type: DT_FLOAT
    }
  }
  attr {
    key: "value"
    value {
      tensor {
        dtype: DT_FLOAT
        tensor_shape {
          dim {
            size: 1
          }
          dim {
            size: 1
          }
          dim {
            size: 60
          }
          dim {
            size: 40
          }
        }
        tensor_content: "…"
      }
    }
  }
}
node {
  name: "Func/cnn_model/StatefulPartitionedCall/input/_13"
  op: "Identity"
  input: "cnn_model/9839"
  attr {
    key: "T"
    value {
      type: DT_FLOAT
    }
  }
}
node {
  name: "cnn_model/9847"
  op: "Const"
  attr {
    key: "dtype"
    value {
      type: DT_FLOAT
    }
  }
  attr {
    key: "value"
    value {
      tensor {
        dtype: DT_FLOAT
        tensor_shape {
          dim {
            size: 40
          }
        }
        tensor_content: "…"
      }
    }
  }
}
node {
  name: "Func/cnn_model/StatefulPartitionedCall/input/_17"
  op: "Identity"
  input: "cnn_model/9847"
  attr {
    key: "T"
    value {
      type: DT_FLOAT
    }
  }
}
node {
  name: "cnn_model/9863"
  op: "Const"
  attr {
    key: "dtype"
    value {
      type: DT_FLOAT
    }
  }
  attr {
    key: "value"
    value {
      tensor {
        dtype: DT_FLOAT
        tensor_shape {
          dim {
            size: 2
          }
          dim {
            size: 2
          }
          dim {
            size: 20
          }
          dim {
            size: 20
          }
        }
        tensor_content: "…"
      }
    }
  }
}
node {
  name: "Func/cnn_model/StatefulPartitionedCall/input/_25"
  op: "Identity"
  input: "cnn_model/9863"
  attr {
    key: "T"
    value {
      type: DT_FLOAT
    }
  }
}
node {
  name: "cnn_model/9879"
  op: "Const"
  attr {
    key: "dtype"
    value {
      type: DT_FLOAT
    }
  }
  attr {
    key: "value"
    value {
      tensor {
        dtype: DT_FLOAT
        tensor_shape {
          dim {
            size: 20
          }
        }
        tensor_content: "…"
      }
    }
  }
}
node {
  name: "Func/cnn_model/StatefulPartitionedCall/input/_33"
  op: "Identity"
  input: "cnn_model/9879"
  attr {
    key: "T"
    value {
      type: DT_FLOAT
    }
  }
}
node {
  name: "cnn_model/9825"
  op: "Const"
  attr {
    key: "dtype"
    value {
      type: DT_FLOAT
    }
  }
  attr {
    key: "value"
    value {
      tensor {
        dtype: DT_FLOAT
        tensor_shape {
          dim {
            size: 80
          }
        }
        tensor_content: "…"
      }
    }
  }
}
node {
  name: "Func/cnn_model/StatefulPartitionedCall/input/_6"
  op: "Identity"
  input: "cnn_model/9825"
  attr {
    key: "T"
    value {
      type: DT_FLOAT
    }
  }
}
node {
  name: "cnn_model/9945"
  op: "Const"
  attr {
    key: "dtype"
    value {
      type: DT_FLOAT
    }
  }
  attr {
    key: "value"
    value {
      tensor {
        dtype: DT_FLOAT
        tensor_shape {
          dim {
            size: 20
          }
        }
        tensor_content: "…"
      }
    }
  }
}
node {
  name: "Func/cnn_model/StatefulPartitionedCall/input/_66"
  op: "Identity"
  input: "cnn_model/9945"
  attr {
    key: "T"
    value {
      type: DT_FLOAT
    }
  }
}
node {
  name: "cnn_model/9829"
  op: "Const"
  attr {
    key: "dtype"
    value {
      type: DT_FLOAT
    }
  }
  attr {
    key: "value"
    value {
      tensor {
        dtype: DT_FLOAT
        tensor_shape {
          dim {
            size: 60
          }
        }
        tensor_content: "…"
      }
    }
  }
}
node {
  name: "Func/cnn_model/StatefulPartitionedCall/input/_8"
  op: "Identity"
  input: "cnn_model/9829"
  attr {
    key: "T"
    value {
      type: DT_FLOAT
    }
  }
}
node {
  name: "cnn_model/9849"
  op: "Const"
  attr {
    key: "dtype"
    value {
      type: DT_FLOAT
    }
  }
  attr {
    key: "value"
    value {
      tensor {
        dtype: DT_FLOAT
        tensor_shape {
          dim {
            size: 40
          }
        }
        tensor_content: "…"
      }
    }
  }
}
node {
  name: "Func/cnn_model/StatefulPartitionedCall/input/_18"
  op: "Identity"
  input: "cnn_model/9849"
  attr {
    key: "T"
    value {
      type: DT_FLOAT
    }
  }
}
node {
  name: "cnn_model/9853"
  op: "Const"
  attr {
    key: "dtype"
    value {
      type: DT_FLOAT
    }
  }
  attr {
    key: "value"
    value {
      tensor {
        dtype: DT_FLOAT
        tensor_shape {
          dim {
            size: 20
          }
        }
        tensor_content: "…"
      }
    }
  }
}
node {
  name: "Func/cnn_model/StatefulPartitionedCall/input/_20"
  op: "Identity"
  input: "cnn_model/9853"
  attr {
    key: "T"
    value {
      type: DT_FLOAT
    }
  }
}
node {
  name: "cnn_model/9933"
  op: "Const"
  attr {
    key: "dtype"
    value {
      type: DT_FLOAT
    }
  }
  attr {
    key: "value"
    value {
      tensor {
        dtype: DT_FLOAT
        tensor_shape {
          dim {
            size: 40
          }
        }
        tensor_content: "…"
      }
    }
  }
}
node {
  name: "Func/cnn_model/StatefulPartitionedCall/input/_60"
  op: "Identity"
  input: "cnn_model/9933"
  attr {
    key: "T"
    value {
      type: DT_FLOAT
    }
  }
}
node {
  name: "cnn_model/9947"
  op: "Const"
  attr {
    key: "dtype"
    value {
      type: DT_FLOAT
    }
  }
  attr {
    key: "value"
    value {
      tensor {
        dtype: DT_FLOAT
        tensor_shape {
          dim {
            size: 20
          }
          dim {
            size: 1
          }
        }
        tensor_content: "…"
      }
    }
  }
}
node {
  name: "Func/cnn_model/StatefulPartitionedCall/input/_67"
  op: "Identity"
  input: "cnn_model/9947"
  attr {
    key: "T"
    value {
      type: DT_FLOAT
    }
  }
}
node {
  name: "cnn_model/9831"
  op: "Const"
  attr {
    key: "dtype"
    value {
      type: DT_FLOAT
    }
  }
  attr {
    key: "value"
    value {
      tensor {
        dtype: DT_FLOAT
        tensor_shape {
          dim {
            size: 60
          }
        }
        tensor_content: "…"
      }
    }
  }
}
node {
  name: "Func/cnn_model/StatefulPartitionedCall/input/_9"
  op: "Identity"
  input: "cnn_model/9831"
  attr {
    key: "T"
    value {
      type: DT_FLOAT
    }
  }
}
node {
  name: "cnn_model/9935"
  op: "Const"
  attr {
    key: "dtype"
    value {
      type: DT_FLOAT
    }
  }
  attr {
    key: "value"
    value {
      tensor {
        dtype: DT_FLOAT
        tensor_shape {
          dim {
            size: 40
          }
          dim {
            size: 20
          }
        }
        tensor_content: "…"
      }
    }
  }
}
node {
  name: "Func/cnn_model/StatefulPartitionedCall/input/_61"
  op: "Identity"
  input: "cnn_model/9935"
  attr {
    key: "T"
    value {
      type: DT_FLOAT
    }
  }
}
node {
  name: "cnn_model/9949"
  op: "Const"
  attr {
    key: "dtype"
    value {
      type: DT_FLOAT
    }
  }
  attr {
    key: "value"
    value {
      tensor {
        dtype: DT_FLOAT
        tensor_shape {
          dim {
            size: 1
          }
        }
        float_val: -0.15043658018112183
      }
    }
  }
}
node {
  name: "Func/cnn_model/StatefulPartitionedCall/input/_68"
  op: "Identity"
  input: "cnn_model/9949"
  attr {
    key: "T"
    value {
      type: DT_FLOAT
    }
  }
}
node {
  name: "cnn_model/9937"
  op: "Const"
  attr {
    key: "dtype"
    value {
      type: DT_FLOAT
    }
  }
  attr {
    key: "value"
    value {
      tensor {
        dtype: DT_FLOAT
        tensor_shape {
          dim {
            size: 20
          }
        }
        tensor_content: "…"
      }
    }
  }
}
node {
  name: "Func/cnn_model/StatefulPartitionedCall/input/_62"
  op: "Identity"
  input: "cnn_model/9937"
  attr {
    key: "T"
    value {
      type: DT_FLOAT
    }
  }
}
node {
  name: "Func/cnn_model/StatefulPartitionedCall/StatefulPartitionedCall/input_control_node/_71"
  op: "NoOp"
  input: "^Func/cnn_model/StatefulPartitionedCall/input/_0"
  input: "^Func/cnn_model/StatefulPartitionedCall/input/_1"
  input: "^Func/cnn_model/StatefulPartitionedCall/input/_10"
  input: "^Func/cnn_model/StatefulPartitionedCall/input/_11"
  input: "^Func/cnn_model/StatefulPartitionedCall/input/_12"
  input: "^Func/cnn_model/StatefulPartitionedCall/input/_13"
  input: "^Func/cnn_model/StatefulPartitionedCall/input/_14"
  input: "^Func/cnn_model/StatefulPartitionedCall/input/_15"
  input: "^Func/cnn_model/StatefulPartitionedCall/input/_16"
  input: "^Func/cnn_model/StatefulPartitionedCall/input/_17"
  input: "^Func/cnn_model/StatefulPartitionedCall/input/_18"
  input: "^Func/cnn_model/StatefulPartitionedCall/input/_19"
  input: "^Func/cnn_model/StatefulPartitionedCall/input/_2"
  input: "^Func/cnn_model/StatefulPartitionedCall/input/_20"
  input: "^Func/cnn_model/StatefulPartitionedCall/input/_21"
  input: "^Func/cnn_model/StatefulPartitionedCall/input/_22"
  input: "^Func/cnn_model/StatefulPartitionedCall/input/_23"
  input: "^Func/cnn_model/StatefulPartitionedCall/input/_24"
  input: "^Func/cnn_model/StatefulPartitionedCall/input/_25"
  input: "^Func/cnn_model/StatefulPartitionedCall/input/_26"
  input: "^Func/cnn_model/StatefulPartitionedCall/input/_27"
  input: "^Func/cnn_model/StatefulPartitionedCall/input/_28"
  input: "^Func/cnn_model/StatefulPartitionedCall/input/_29"
  input: "^Func/cnn_model/StatefulPartitionedCall/input/_3"
  input: "^Func/cnn_model/StatefulPartitionedCall/input/_30"
  input: "^Func/cnn_model/StatefulPartitionedCall/input/_31"
  input: "^Func/cnn_model/StatefulPartitionedCall/input/_32"
  input: "^Func/cnn_model/StatefulPartitionedCall/input/_33"
  input: "^Func/cnn_model/StatefulPartitionedCall/input/_34"
  input: "^Func/cnn_model/StatefulPartitionedCall/input/_35"
  input: "^Func/cnn_model/StatefulPartitionedCall/input/_36"
  input: "^Func/cnn_model/StatefulPartitionedCall/input/_37"
  input: "^Func/cnn_model/StatefulPartitionedCall/input/_38"
  input: "^Func/cnn_model/StatefulPartitionedCall/input/_39"
  input: "^Func/cnn_model/StatefulPartitionedCall/input/_4"
  input: "^Func/cnn_model/StatefulPartitionedCall/input/_40"
  input: "^Func/cnn_model/StatefulPartitionedCall/input/_41"
  input: "^Func/cnn_model/StatefulPartitionedCall/input/_42"
  input: "^Func/cnn_model/StatefulPartitionedCall/input/_43"
  input: "^Func/cnn_model/StatefulPartitionedCall/input/_44"
  input: "^Func/cnn_model/StatefulPartitionedCall/input/_45"
  input: "^Func/cnn_model/StatefulPartitionedCall/input/_46"
  input: "^Func/cnn_model/StatefulPartitionedCall/input/_47"
  input: "^Func/cnn_model/StatefulPartitionedCall/input/_48"
  input: "^Func/cnn_model/StatefulPartitionedCall/input/_49"
  input: "^Func/cnn_model/StatefulPartitionedCall/input/_5"
  input: "^Func/cnn_model/StatefulPartitionedCall/input/_50"
  input: "^Func/cnn_model/StatefulPartitionedCall/input/_51"
  input: "^Func/cnn_model/StatefulPartitionedCall/input/_52"
  input: "^Func/cnn_model/StatefulPartitionedCall/input/_53"
  input: "^Func/cnn_model/StatefulPartitionedCall/input/_54"
  input: "^Func/cnn_model/StatefulPartitionedCall/input/_55"
  input: "^Func/cnn_model/StatefulPartitionedCall/input/_56"
  input: "^Func/cnn_model/StatefulPartitionedCall/input/_57"
  input: "^Func/cnn_model/StatefulPartitionedCall/input/_58"
  input: "^Func/cnn_model/StatefulPartitionedCall/input/_59"
  input: "^Func/cnn_model/StatefulPartitionedCall/input/_6"
  input: "^Func/cnn_model/StatefulPartitionedCall/input/_60"
  input: "^Func/cnn_model/StatefulPartitionedCall/input/_61"
  input: "^Func/cnn_model/StatefulPartitionedCall/input/_62"
  input: "^Func/cnn_model/StatefulPartitionedCall/input/_63"
  input: "^Func/cnn_model/StatefulPartitionedCall/input/_64"
  input: "^Func/cnn_model/StatefulPartitionedCall/input/_65"
  input: "^Func/cnn_model/StatefulPartitionedCall/input/_66"
  input: "^Func/cnn_model/StatefulPartitionedCall/input/_67"
  input: "^Func/cnn_model/StatefulPartitionedCall/input/_68"
  input: "^Func/cnn_model/StatefulPartitionedCall/input/_7"
  input: "^Func/cnn_model/StatefulPartitionedCall/input/_8"
  input: "^Func/cnn_model/StatefulPartitionedCall/input/_9"
}
node {
  name: "Func/cnn_model/StatefulPartitionedCall/StatefulPartitionedCall/input/_72"
  op: "Identity"
  input: "Func/cnn_model/StatefulPartitionedCall/input/_0"
  input: "^Func/cnn_model/StatefulPartitionedCall/StatefulPartitionedCall/input_control_node/_71"
  attr {
    key: "T"
    value {
      type: DT_FLOAT
    }
  }
}
node {
  name: "Func/cnn_model/StatefulPartitionedCall/StatefulPartitionedCall/input/_73"
  op: "Identity"
  input: "Func/cnn_model/StatefulPartitionedCall/input/_1"
  input: "^Func/cnn_model/StatefulPartitionedCall/StatefulPartitionedCall/input_control_node/_71"
  attr {
    key: "T"
    value {
      type: DT_FLOAT
    }
  }
}
node {
  name: "cnn_model/StatefulPartitionedCall/StatefulPartitionedCall/CNN1x1_0/Conv2D/ReadVariableOp"
  op: "Identity"
  input: "Func/cnn_model/StatefulPartitionedCall/StatefulPartitionedCall/input/_73"
  attr {
    key: "T"
    value {
      type: DT_FLOAT
    }
  }
}
node {
  name: "cnn_model/StatefulPartitionedCall/StatefulPartitionedCall/CNN1x1_0/Conv2D"
  op: "Conv2D"
  input: "Func/cnn_model/StatefulPartitionedCall/StatefulPartitionedCall/input/_72"
  input: "cnn_model/StatefulPartitionedCall/StatefulPartitionedCall/CNN1x1_0/Conv2D/ReadVariableOp"
  attr {
    key: "T"
    value {
      type: DT_FLOAT
    }
  }
  attr {
    key: "data_format"
    value {
      s: "NHWC"
    }
  }
  attr {
    key: "dilations"
    value {
      list {
        i: 1
        i: 1
        i: 1
        i: 1
      }
    }
  }
  attr {
    key: "explicit_paddings"
    value {
      list {
      }
    }
  }
  attr {
    key: "padding"
    value {
      s: "VALID"
    }
  }
  attr {
    key: "strides"
    value {
      list {
        i: 1
        i: 1
        i: 1
        i: 1
      }
    }
  }
  attr {
    key: "use_cudnn_on_gpu"
    value {
      b: true
    }
  }
}
node {
  name: "Func/cnn_model/StatefulPartitionedCall/StatefulPartitionedCall/input/_74"
  op: "Identity"
  input: "Func/cnn_model/StatefulPartitionedCall/input/_2"
  input: "^Func/cnn_model/StatefulPartitionedCall/StatefulPartitionedCall/input_control_node/_71"
  attr {
    key: "T"
    value {
      type: DT_FLOAT
    }
  }
}
node {
  name: "cnn_model/StatefulPartitionedCall/StatefulPartitionedCall/CNN1x1_0/BiasAdd/ReadVariableOp"
  op: "Identity"
  input: "Func/cnn_model/StatefulPartitionedCall/StatefulPartitionedCall/input/_74"
  attr {
    key: "T"
    value {
      type: DT_FLOAT
    }
  }
}
node {
  name: "cnn_model/StatefulPartitionedCall/StatefulPartitionedCall/CNN1x1_0/BiasAdd"
  op: "BiasAdd"
  input: "cnn_model/StatefulPartitionedCall/StatefulPartitionedCall/CNN1x1_0/Conv2D"
  input: "cnn_model/StatefulPartitionedCall/StatefulPartitionedCall/CNN1x1_0/BiasAdd/ReadVariableOp"
  attr {
    key: "T"
    value {
      type: DT_FLOAT
    }
  }
  attr {
    key: "data_format"
    value {
      s: "NHWC"
    }
  }
}
node {
  name: "Func/cnn_model/StatefulPartitionedCall/StatefulPartitionedCall/input/_75"
  op: "Identity"
  input: "Func/cnn_model/StatefulPartitionedCall/input/_3"
  input: "^Func/cnn_model/StatefulPartitionedCall/StatefulPartitionedCall/input_control_node/_71"
  attr {
    key: "T"
    value {
      type: DT_FLOAT
    }
  }
}
node {
  name: "cnn_model/StatefulPartitionedCall/StatefulPartitionedCall/batch_normalization_CNN1x1_0/ReadVariableOp"
  op: "Identity"
  input: "Func/cnn_model/StatefulPartitionedCall/StatefulPartitionedCall/input/_75"
  attr {
    key: "T"
    value {
      type: DT_FLOAT
    }
  }
}
node {
  name: "Func/cnn_model/StatefulPartitionedCall/StatefulPartitionedCall/input/_76"
  op: "Identity"
  input: "Func/cnn_model/StatefulPartitionedCall/input/_4"
  input: "^Func/cnn_model/StatefulPartitionedCall/StatefulPartitionedCall/input_control_node/_71"
  attr {
    key: "T"
    value {
      type: DT_FLOAT
    }
  }
}
node {
  name: "cnn_model/StatefulPartitionedCall/StatefulPartitionedCall/batch_normalization_CNN1x1_0/ReadVariableOp_1"
  op: "Identity"
  input: "Func/cnn_model/StatefulPartitionedCall/StatefulPartitionedCall/input/_76"
  attr {
    key: "T"
    value {
      type: DT_FLOAT
    }
  }
}
node {
  name: "Func/cnn_model/StatefulPartitionedCall/StatefulPartitionedCall/input/_77"
  op: "Identity"
  input: "Func/cnn_model/StatefulPartitionedCall/input/_5"
  input: "^Func/cnn_model/StatefulPartitionedCall/StatefulPartitionedCall/input_control_node/_71"
  attr {
    key: "T"
    value {
      type: DT_FLOAT
    }
  }
}
node {
  name: "cnn_model/StatefulPartitionedCall/StatefulPartitionedCall/batch_normalization_CNN1x1_0/FusedBatchNormV3/ReadVariableOp"
  op: "Identity"
  input: "Func/cnn_model/StatefulPartitionedCall/StatefulPartitionedCall/input/_77"
  attr {
    key: "T"
    value {
      type: DT_FLOAT
    }
  }
}
node {
  name: "Func/cnn_model/StatefulPartitionedCall/StatefulPartitionedCall/input/_78"
  op: "Identity"
  input: "Func/cnn_model/StatefulPartitionedCall/input/_6"
  input: "^Func/cnn_model/StatefulPartitionedCall/StatefulPartitionedCall/input_control_node/_71"
  attr {
    key: "T"
    value {
      type: DT_FLOAT
    }
  }
}
node {
  name: "cnn_model/StatefulPartitionedCall/StatefulPartitionedCall/batch_normalization_CNN1x1_0/FusedBatchNormV3/ReadVariableOp_1"
  op: "Identity"
  input: "Func/cnn_model/StatefulPartitionedCall/StatefulPartitionedCall/input/_78"
  attr {
    key: "T"
    value {
      type: DT_FLOAT
    }
  }
}
node {
  name: "cnn_model/StatefulPartitionedCall/StatefulPartitionedCall/batch_normalization_CNN1x1_0/FusedBatchNormV3"
  op: "FusedBatchNormV3"
  input: "cnn_model/StatefulPartitionedCall/StatefulPartitionedCall/CNN1x1_0/BiasAdd"
  input: "cnn_model/StatefulPartitionedCall/StatefulPartitionedCall/batch_normalization_CNN1x1_0/ReadVariableOp"
  input: "cnn_model/StatefulPartitionedCall/StatefulPartitionedCall/batch_normalization_CNN1x1_0/ReadVariableOp_1"
  input: "cnn_model/StatefulPartitionedCall/StatefulPartitionedCall/batch_normalization_CNN1x1_0/FusedBatchNormV3/ReadVariableOp"
  input: "cnn_model/StatefulPartitionedCall/StatefulPartitionedCall/batch_normalization_CNN1x1_0/FusedBatchNormV3/ReadVariableOp_1"
  attr {
    key: "T"
    value {
      type: DT_FLOAT
    }
  }
  attr {
    key: "U"
    value {
      type: DT_FLOAT
    }
  }
  attr {
    key: "data_format"
    value {
      s: "NHWC"
    }
  }
  attr {
    key: "epsilon"
    value {
      f: 0.0010000000474974513
    }
  }
  attr {
    key: "exponential_avg_factor"
    value {
      f: 1.0
    }
  }
  attr {
    key: "is_training"
    value {
      b: false
    }
  }
}
node {
  name: "cnn_model/StatefulPartitionedCall/StatefulPartitionedCall/activation/Relu"
  op: "Relu"
  input: "cnn_model/StatefulPartitionedCall/StatefulPartitionedCall/batch_normalization_CNN1x1_0/FusedBatchNormV3"
  attr {
    key: "T"
    value {
      type: DT_FLOAT
    }
  }
}
node {
  name: "Func/cnn_model/StatefulPartitionedCall/StatefulPartitionedCall/input/_79"
  op: "Identity"
  input: "Func/cnn_model/StatefulPartitionedCall/input/_7"
  input: "^Func/cnn_model/StatefulPartitionedCall/StatefulPartitionedCall/input_control_node/_71"
  attr {
    key: "T"
    value {
      type: DT_FLOAT
    }
  }
}
node {
  name: "cnn_model/StatefulPartitionedCall/StatefulPartitionedCall/CNN1x1_1/Conv2D/ReadVariableOp"
  op: "Identity"
  input: "Func/cnn_model/StatefulPartitionedCall/StatefulPartitionedCall/input/_79"
  attr {
    key: "T"
    value {
      type: DT_FLOAT
    }
  }
}
node {
  name: "cnn_model/StatefulPartitionedCall/StatefulPartitionedCall/CNN1x1_1/Conv2D"
  op: "Conv2D"
  input: "cnn_model/StatefulPartitionedCall/StatefulPartitionedCall/activation/Relu"
  input: "cnn_model/StatefulPartitionedCall/StatefulPartitionedCall/CNN1x1_1/Conv2D/ReadVariableOp"
  attr {
    key: "T"
    value {
      type: DT_FLOAT
    }
  }
  attr {
    key: "data_format"
    value {
      s: "NHWC"
    }
  }
  attr {
    key: "dilations"
    value {
      list {
        i: 1
        i: 1
        i: 1
        i: 1
      }
    }
  }
  attr {
    key: "explicit_paddings"
    value {
      list {
      }
    }
  }
  attr {
    key: "padding"
    value {
      s: "VALID"
    }
  }
  attr {
    key: "strides"
    value {
      list {
        i: 1
        i: 1
        i: 1
        i: 1
      }
    }
  }
  attr {
    key: "use_cudnn_on_gpu"
    value {
      b: true
    }
  }
}
node {
  name: "Func/cnn_model/StatefulPartitionedCall/StatefulPartitionedCall/input/_80"
  op: "Identity"
  input: "Func/cnn_model/StatefulPartitionedCall/input/_8"
  input: "^Func/cnn_model/StatefulPartitionedCall/StatefulPartitionedCall/input_control_node/_71"
  attr {
    key: "T"
    value {
      type: DT_FLOAT
    }
  }
}
node {
  name: "cnn_model/StatefulPartitionedCall/StatefulPartitionedCall/CNN1x1_1/BiasAdd/ReadVariableOp"
  op: "Identity"
  input: "Func/cnn_model/StatefulPartitionedCall/StatefulPartitionedCall/input/_80"
  attr {
    key: "T"
    value {
      type: DT_FLOAT
    }
  }
}
node {
  name: "cnn_model/StatefulPartitionedCall/StatefulPartitionedCall/CNN1x1_1/BiasAdd"
  op: "BiasAdd"
  input: "cnn_model/StatefulPartitionedCall/StatefulPartitionedCall/CNN1x1_1/Conv2D"
  input: "cnn_model/StatefulPartitionedCall/StatefulPartitionedCall/CNN1x1_1/BiasAdd/ReadVariableOp"
  attr {
    key: "T"
    value {
      type: DT_FLOAT
    }
  }
  attr {
    key: "data_format"
    value {
      s: "NHWC"
    }
  }
}
node {
  name: "Func/cnn_model/StatefulPartitionedCall/StatefulPartitionedCall/input/_81"
  op: "Identity"
  input: "Func/cnn_model/StatefulPartitionedCall/input/_9"
  input: "^Func/cnn_model/StatefulPartitionedCall/StatefulPartitionedCall/input_control_node/_71"
  attr {
    key: "T"
    value {
      type: DT_FLOAT
    }
  }
}
node {
  name: "cnn_model/StatefulPartitionedCall/StatefulPartitionedCall/batch_normalization_CNN1x1_1/ReadVariableOp"
  op: "Identity"
  input: "Func/cnn_model/StatefulPartitionedCall/StatefulPartitionedCall/input/_81"
  attr {
    key: "T"
    value {
      type: DT_FLOAT
    }
  }
}
node {
  name: "Func/cnn_model/StatefulPartitionedCall/StatefulPartitionedCall/input/_82"
  op: "Identity"
  input: "Func/cnn_model/StatefulPartitionedCall/input/_10"
  input: "^Func/cnn_model/StatefulPartitionedCall/StatefulPartitionedCall/input_control_node/_71"
  attr {
    key: "T"
    value {
      type: DT_FLOAT
    }
  }
}
node {
  name: "cnn_model/StatefulPartitionedCall/StatefulPartitionedCall/batch_normalization_CNN1x1_1/ReadVariableOp_1"
  op: "Identity"
  input: "Func/cnn_model/StatefulPartitionedCall/StatefulPartitionedCall/input/_82"
  attr {
    key: "T"
    value {
      type: DT_FLOAT
    }
  }
}
node {
  name: "Func/cnn_model/StatefulPartitionedCall/StatefulPartitionedCall/input/_83"
  op: "Identity"
  input: "Func/cnn_model/StatefulPartitionedCall/input/_11"
  input: "^Func/cnn_model/StatefulPartitionedCall/StatefulPartitionedCall/input_control_node/_71"
  attr {
    key: "T"
    value {
      type: DT_FLOAT
    }
  }
}
node {
  name: "cnn_model/StatefulPartitionedCall/StatefulPartitionedCall/batch_normalization_CNN1x1_1/FusedBatchNormV3/ReadVariableOp"
  op: "Identity"
  input: "Func/cnn_model/StatefulPartitionedCall/StatefulPartitionedCall/input/_83"
  attr {
    key: "T"
    value {
      type: DT_FLOAT
    }
  }
}
node {
  name: "Func/cnn_model/StatefulPartitionedCall/StatefulPartitionedCall/input/_84"
  op: "Identity"
  input: "Func/cnn_model/StatefulPartitionedCall/input/_12"
  input: "^Func/cnn_model/StatefulPartitionedCall/StatefulPartitionedCall/input_control_node/_71"
  attr {
    key: "T"
    value {
      type: DT_FLOAT
    }
  }
}
node {
  name: "cnn_model/StatefulPartitionedCall/StatefulPartitionedCall/batch_normalization_CNN1x1_1/FusedBatchNormV3/ReadVariableOp_1"
  op: "Identity"
  input: "Func/cnn_model/StatefulPartitionedCall/StatefulPartitionedCall/input/_84"
  attr {
    key: "T"
    value {
      type: DT_FLOAT
    }
  }
}
node {
  name: "cnn_model/StatefulPartitionedCall/StatefulPartitionedCall/batch_normalization_CNN1x1_1/FusedBatchNormV3"
  op: "FusedBatchNormV3"
  input: "cnn_model/StatefulPartitionedCall/StatefulPartitionedCall/CNN1x1_1/BiasAdd"
  input: "cnn_model/StatefulPartitionedCall/StatefulPartitionedCall/batch_normalization_CNN1x1_1/ReadVariableOp"
  input: "cnn_model/StatefulPartitionedCall/StatefulPartitionedCall/batch_normalization_CNN1x1_1/ReadVariableOp_1"
  input: "cnn_model/StatefulPartitionedCall/StatefulPartitionedCall/batch_normalization_CNN1x1_1/FusedBatchNormV3/ReadVariableOp"
  input: "cnn_model/StatefulPartitionedCall/StatefulPartitionedCall/batch_normalization_CNN1x1_1/FusedBatchNormV3/ReadVariableOp_1"
  attr {
    key: "T"
    value {
      type: DT_FLOAT
    }
  }
  attr {
    key: "U"
    value {
      type: DT_FLOAT
    }
  }
  attr {
    key: "data_format"
    value {
      s: "NHWC"
    }
  }
  attr {
    key: "epsilon"
    value {
      f: 0.0010000000474974513
    }
  }
  attr {
    key: "exponential_avg_factor"
    value {
      f: 1.0
    }
  }
  attr {
    key: "is_training"
    value {
      b: false
    }
  }
}
node {
  name: "cnn_model/StatefulPartitionedCall/StatefulPartitionedCall/activation_1/Relu"
  op: "Relu"
  input: "cnn_model/StatefulPartitionedCall/StatefulPartitionedCall/batch_normalization_CNN1x1_1/FusedBatchNormV3"
  attr {
    key: "T"
    value {
      type: DT_FLOAT
    }
  }
}
node {
  name: "Func/cnn_model/StatefulPartitionedCall/StatefulPartitionedCall/input/_85"
  op: "Identity"
  input: "Func/cnn_model/StatefulPartitionedCall/input/_13"
  input: "^Func/cnn_model/StatefulPartitionedCall/StatefulPartitionedCall/input_control_node/_71"
  attr {
    key: "T"
    value {
      type: DT_FLOAT
    }
  }
}
node {
  name: "cnn_model/StatefulPartitionedCall/StatefulPartitionedCall/CNN1x1_2/Conv2D/ReadVariableOp"
  op: "Identity"
  input: "Func/cnn_model/StatefulPartitionedCall/StatefulPartitionedCall/input/_85"
  attr {
    key: "T"
    value {
      type: DT_FLOAT
    }
  }
}
node {
  name: "cnn_model/StatefulPartitionedCall/StatefulPartitionedCall/CNN1x1_2/Conv2D"
  op: "Conv2D"
  input: "cnn_model/StatefulPartitionedCall/StatefulPartitionedCall/activation_1/Relu"
  input: "cnn_model/StatefulPartitionedCall/StatefulPartitionedCall/CNN1x1_2/Conv2D/ReadVariableOp"
  attr {
    key: "T"
    value {
      type: DT_FLOAT
    }
  }
  attr {
    key: "data_format"
    value {
      s: "NHWC"
    }
  }
  attr {
    key: "dilations"
    value {
      list {
        i: 1
        i: 1
        i: 1
        i: 1
      }
    }
  }
  attr {
    key: "explicit_paddings"
    value {
      list {
      }
    }
  }
  attr {
    key: "padding"
    value {
      s: "VALID"
    }
  }
  attr {
    key: "strides"
    value {
      list {
        i: 1
        i: 1
        i: 1
        i: 1
      }
    }
  }
  attr {
    key: "use_cudnn_on_gpu"
    value {
      b: true
    }
  }
}
node {
  name: "Func/cnn_model/StatefulPartitionedCall/StatefulPartitionedCall/input/_86"
  op: "Identity"
  input: "Func/cnn_model/StatefulPartitionedCall/input/_14"
  input: "^Func/cnn_model/StatefulPartitionedCall/StatefulPartitionedCall/input_control_node/_71"
  attr {
    key: "T"
    value {
      type: DT_FLOAT
    }
  }
}
node {
  name: "cnn_model/StatefulPartitionedCall/StatefulPartitionedCall/CNN1x1_2/BiasAdd/ReadVariableOp"
  op: "Identity"
  input: "Func/cnn_model/StatefulPartitionedCall/StatefulPartitionedCall/input/_86"
  attr {
    key: "T"
    value {
      type: DT_FLOAT
    }
  }
}
node {
  name: "cnn_model/StatefulPartitionedCall/StatefulPartitionedCall/CNN1x1_2/BiasAdd"
  op: "BiasAdd"
  input: "cnn_model/StatefulPartitionedCall/StatefulPartitionedCall/CNN1x1_2/Conv2D"
  input: "cnn_model/StatefulPartitionedCall/StatefulPartitionedCall/CNN1x1_2/BiasAdd/ReadVariableOp"
  attr {
    key: "T"
    value {
      type: DT_FLOAT
    }
  }
  attr {
    key: "data_format"
    value {
      s: "NHWC"
    }
  }
}
node {
  name: "Func/cnn_model/StatefulPartitionedCall/StatefulPartitionedCall/input/_87"
  op: "Identity"
  input: "Func/cnn_model/StatefulPartitionedCall/input/_15"
  input: "^Func/cnn_model/StatefulPartitionedCall/StatefulPartitionedCall/input_control_node/_71"
  attr {
    key: "T"
    value {
      type: DT_FLOAT
    }
  }
}
node {
  name: "cnn_model/StatefulPartitionedCall/StatefulPartitionedCall/batch_normalization_CNN1x1_2/ReadVariableOp"
  op: "Identity"
  input: "Func/cnn_model/StatefulPartitionedCall/StatefulPartitionedCall/input/_87"
  attr {
    key: "T"
    value {
      type: DT_FLOAT
    }
  }
}
node {
  name: "Func/cnn_model/StatefulPartitionedCall/StatefulPartitionedCall/input/_88"
  op: "Identity"
  input: "Func/cnn_model/StatefulPartitionedCall/input/_16"
  input: "^Func/cnn_model/StatefulPartitionedCall/StatefulPartitionedCall/input_control_node/_71"
  attr {
    key: "T"
    value {
      type: DT_FLOAT
    }
  }
}
node {
  name: "cnn_model/StatefulPartitionedCall/StatefulPartitionedCall/batch_normalization_CNN1x1_2/ReadVariableOp_1"
  op: "Identity"
  input: "Func/cnn_model/StatefulPartitionedCall/StatefulPartitionedCall/input/_88"
  attr {
    key: "T"
    value {
      type: DT_FLOAT
    }
  }
}
node {
  name: "Func/cnn_model/StatefulPartitionedCall/StatefulPartitionedCall/input/_89"
  op: "Identity"
  input: "Func/cnn_model/StatefulPartitionedCall/input/_17"
  input: "^Func/cnn_model/StatefulPartitionedCall/StatefulPartitionedCall/input_control_node/_71"
  attr {
    key: "T"
    value {
      type: DT_FLOAT
    }
  }
}
node {
  name: "cnn_model/StatefulPartitionedCall/StatefulPartitionedCall/batch_normalization_CNN1x1_2/FusedBatchNormV3/ReadVariableOp"
  op: "Identity"
  input: "Func/cnn_model/StatefulPartitionedCall/StatefulPartitionedCall/input/_89"
  attr {
    key: "T"
    value {
      type: DT_FLOAT
    }
  }
}
node {
  name: "Func/cnn_model/StatefulPartitionedCall/StatefulPartitionedCall/input/_90"
  op: "Identity"
  input: "Func/cnn_model/StatefulPartitionedCall/input/_18"
  input: "^Func/cnn_model/StatefulPartitionedCall/StatefulPartitionedCall/input_control_node/_71"
  attr {
    key: "T"
    value {
      type: DT_FLOAT
    }
  }
}
node {
  name: "cnn_model/StatefulPartitionedCall/StatefulPartitionedCall/batch_normalization_CNN1x1_2/FusedBatchNormV3/ReadVariableOp_1"
  op: "Identity"
  input: "Func/cnn_model/StatefulPartitionedCall/StatefulPartitionedCall/input/_90"
  attr {
    key: "T"
    value {
      type: DT_FLOAT
    }
  }
}
node {
  name: "cnn_model/StatefulPartitionedCall/StatefulPartitionedCall/batch_normalization_CNN1x1_2/FusedBatchNormV3"
  op: "FusedBatchNormV3"
  input: "cnn_model/StatefulPartitionedCall/StatefulPartitionedCall/CNN1x1_2/BiasAdd"
  input: "cnn_model/StatefulPartitionedCall/StatefulPartitionedCall/batch_normalization_CNN1x1_2/ReadVariableOp"
  input: "cnn_model/StatefulPartitionedCall/StatefulPartitionedCall/batch_normalization_CNN1x1_2/ReadVariableOp_1"
  input: "cnn_model/StatefulPartitionedCall/StatefulPartitionedCall/batch_normalization_CNN1x1_2/FusedBatchNormV3/ReadVariableOp"
  input: "cnn_model/StatefulPartitionedCall/StatefulPartitionedCall/batch_normalization_CNN1x1_2/FusedBatchNormV3/ReadVariableOp_1"
  attr {
    key: "T"
    value {
      type: DT_FLOAT
    }
  }
  attr {
    key: "U"
    value {
      type: DT_FLOAT
    }
  }
  attr {
    key: "data_format"
    value {
      s: "NHWC"
    }
  }
  attr {
    key: "epsilon"
    value {
      f: 0.0010000000474974513
    }
  }
  attr {
    key: "exponential_avg_factor"
    value {
      f: 1.0
    }
  }
  attr {
    key: "is_training"
    value {
      b: false
    }
  }
}
node {
  name: "cnn_model/StatefulPartitionedCall/StatefulPartitionedCall/activation_2/Relu"
  op: "Relu"
  input: "cnn_model/StatefulPartitionedCall/StatefulPartitionedCall/batch_normalization_CNN1x1_2/FusedBatchNormV3"
  attr {
    key: "T"
    value {
      type: DT_FLOAT
    }
  }
}
node {
  name: "Func/cnn_model/StatefulPartitionedCall/StatefulPartitionedCall/input/_91"
  op: "Identity"
  input: "Func/cnn_model/StatefulPartitionedCall/input/_19"
  input: "^Func/cnn_model/StatefulPartitionedCall/StatefulPartitionedCall/input_control_node/_71"
  attr {
    key: "T"
    value {
      type: DT_FLOAT
    }
  }
}
node {
  name: "cnn_model/StatefulPartitionedCall/StatefulPartitionedCall/CNN1x1_3/Conv2D/ReadVariableOp"
  op: "Identity"
  input: "Func/cnn_model/StatefulPartitionedCall/StatefulPartitionedCall/input/_91"
  attr {
    key: "T"
    value {
      type: DT_FLOAT
    }
  }
}
node {
  name: "cnn_model/StatefulPartitionedCall/StatefulPartitionedCall/CNN1x1_3/Conv2D"
  op: "Conv2D"
  input: "cnn_model/StatefulPartitionedCall/StatefulPartitionedCall/activation_2/Relu"
  input: "cnn_model/StatefulPartitionedCall/StatefulPartitionedCall/CNN1x1_3/Conv2D/ReadVariableOp"
  attr {
    key: "T"
    value {
      type: DT_FLOAT
    }
  }
  attr {
    key: "data_format"
    value {
      s: "NHWC"
    }
  }
  attr {
    key: "dilations"
    value {
      list {
        i: 1
        i: 1
        i: 1
        i: 1
      }
    }
  }
  attr {
    key: "explicit_paddings"
    value {
      list {
      }
    }
  }
  attr {
    key: "padding"
    value {
      s: "VALID"
    }
  }
  attr {
    key: "strides"
    value {
      list {
        i: 1
        i: 1
        i: 1
        i: 1
      }
    }
  }
  attr {
    key: "use_cudnn_on_gpu"
    value {
      b: true
    }
  }
}
node {
  name: "Func/cnn_model/StatefulPartitionedCall/StatefulPartitionedCall/input/_92"
  op: "Identity"
  input: "Func/cnn_model/StatefulPartitionedCall/input/_20"
  input: "^Func/cnn_model/StatefulPartitionedCall/StatefulPartitionedCall/input_control_node/_71"
  attr {
    key: "T"
    value {
      type: DT_FLOAT
    }
  }
}
node {
  name: "cnn_model/StatefulPartitionedCall/StatefulPartitionedCall/CNN1x1_3/BiasAdd/ReadVariableOp"
  op: "Identity"
  input: "Func/cnn_model/StatefulPartitionedCall/StatefulPartitionedCall/input/_92"
  attr {
    key: "T"
    value {
      type: DT_FLOAT
    }
  }
}
node {
  name: "cnn_model/StatefulPartitionedCall/StatefulPartitionedCall/CNN1x1_3/BiasAdd"
  op: "BiasAdd"
  input: "cnn_model/StatefulPartitionedCall/StatefulPartitionedCall/CNN1x1_3/Conv2D"
  input: "cnn_model/StatefulPartitionedCall/StatefulPartitionedCall/CNN1x1_3/BiasAdd/ReadVariableOp"
  attr {
    key: "T"
    value {
      type: DT_FLOAT
    }
  }
  attr {
    key: "data_format"
    value {
      s: "NHWC"
    }
  }
}
node {
  name: "Func/cnn_model/StatefulPartitionedCall/StatefulPartitionedCall/input/_93"
  op: "Identity"
  input: "Func/cnn_model/StatefulPartitionedCall/input/_21"
  input: "^Func/cnn_model/StatefulPartitionedCall/StatefulPartitionedCall/input_control_node/_71"
  attr {
    key: "T"
    value {
      type: DT_FLOAT
    }
  }
}
node {
  name: "cnn_model/StatefulPartitionedCall/StatefulPartitionedCall/batch_normalization_CNN1x1_3/ReadVariableOp"
  op: "Identity"
  input: "Func/cnn_model/StatefulPartitionedCall/StatefulPartitionedCall/input/_93"
  attr {
    key: "T"
    value {
      type: DT_FLOAT
    }
  }
}
node {
  name: "Func/cnn_model/StatefulPartitionedCall/StatefulPartitionedCall/input/_94"
  op: "Identity"
  input: "Func/cnn_model/StatefulPartitionedCall/input/_22"
  input: "^Func/cnn_model/StatefulPartitionedCall/StatefulPartitionedCall/input_control_node/_71"
  attr {
    key: "T"
    value {
      type: DT_FLOAT
    }
  }
}
node {
  name: "cnn_model/StatefulPartitionedCall/StatefulPartitionedCall/batch_normalization_CNN1x1_3/ReadVariableOp_1"
  op: "Identity"
  input: "Func/cnn_model/StatefulPartitionedCall/StatefulPartitionedCall/input/_94"
  attr {
    key: "T"
    value {
      type: DT_FLOAT
    }
  }
}
node {
  name: "Func/cnn_model/StatefulPartitionedCall/StatefulPartitionedCall/input/_95"
  op: "Identity"
  input: "Func/cnn_model/StatefulPartitionedCall/input/_23"
  input: "^Func/cnn_model/StatefulPartitionedCall/StatefulPartitionedCall/input_control_node/_71"
  attr {
    key: "T"
    value {
      type: DT_FLOAT
    }
  }
}
node {
  name: "cnn_model/StatefulPartitionedCall/StatefulPartitionedCall/batch_normalization_CNN1x1_3/FusedBatchNormV3/ReadVariableOp"
  op: "Identity"
  input: "Func/cnn_model/StatefulPartitionedCall/StatefulPartitionedCall/input/_95"
  attr {
    key: "T"
    value {
      type: DT_FLOAT
    }
  }
}
node {
  name: "Func/cnn_model/StatefulPartitionedCall/StatefulPartitionedCall/input/_96"
  op: "Identity"
  input: "Func/cnn_model/StatefulPartitionedCall/input/_24"
  input: "^Func/cnn_model/StatefulPartitionedCall/StatefulPartitionedCall/input_control_node/_71"
  attr {
    key: "T"
    value {
      type: DT_FLOAT
    }
  }
}
node {
  name: "cnn_model/StatefulPartitionedCall/StatefulPartitionedCall/batch_normalization_CNN1x1_3/FusedBatchNormV3/ReadVariableOp_1"
  op: "Identity"
  input: "Func/cnn_model/StatefulPartitionedCall/StatefulPartitionedCall/input/_96"
  attr {
    key: "T"
    value {
      type: DT_FLOAT
    }
  }
}
node {
  name: "cnn_model/StatefulPartitionedCall/StatefulPartitionedCall/batch_normalization_CNN1x1_3/FusedBatchNormV3"
  op: "FusedBatchNormV3"
  input: "cnn_model/StatefulPartitionedCall/StatefulPartitionedCall/CNN1x1_3/BiasAdd"
  input: "cnn_model/StatefulPartitionedCall/StatefulPartitionedCall/batch_normalization_CNN1x1_3/ReadVariableOp"
  input: "cnn_model/StatefulPartitionedCall/StatefulPartitionedCall/batch_normalization_CNN1x1_3/ReadVariableOp_1"
  input: "cnn_model/StatefulPartitionedCall/StatefulPartitionedCall/batch_normalization_CNN1x1_3/FusedBatchNormV3/ReadVariableOp"
  input: "cnn_model/StatefulPartitionedCall/StatefulPartitionedCall/batch_normalization_CNN1x1_3/FusedBatchNormV3/ReadVariableOp_1"
  attr {
    key: "T"
    value {
      type: DT_FLOAT
    }
  }
  attr {
    key: "U"
    value {
      type: DT_FLOAT
    }
  }
  attr {
    key: "data_format"
    value {
      s: "NHWC"
    }
  }
  attr {
    key: "epsilon"
    value {
      f: 0.0010000000474974513
    }
  }
  attr {
    key: "exponential_avg_factor"
    value {
      f: 1.0
    }
  }
  attr {
    key: "is_training"
    value {
      b: false
    }
  }
}
node {
  name: "cnn_model/StatefulPartitionedCall/StatefulPartitionedCall/activation_3/Relu"
  op: "Relu"
  input: "cnn_model/StatefulPartitionedCall/StatefulPartitionedCall/batch_normalization_CNN1x1_3/FusedBatchNormV3"
  attr {
    key: "T"
    value {
      type: DT_FLOAT
    }
  }
}
node {
  name: "Func/cnn_model/StatefulPartitionedCall/StatefulPartitionedCall/input/_97"
  op: "Identity"
  input: "Func/cnn_model/StatefulPartitionedCall/input/_25"
  input: "^Func/cnn_model/StatefulPartitionedCall/StatefulPartitionedCall/input_control_node/_71"
  attr {
    key: "T"
    value {
      type: DT_FLOAT
    }
  }
}
node {
  name: "cnn_model/StatefulPartitionedCall/StatefulPartitionedCall/CNN2x2_0/Conv2D/ReadVariableOp"
  op: "Identity"
  input: "Func/cnn_model/StatefulPartitionedCall/StatefulPartitionedCall/input/_97"
  attr {
    key: "T"
    value {
      type: DT_FLOAT
    }
  }
}
node {
  name: "cnn_model/StatefulPartitionedCall/StatefulPartitionedCall/CNN2x2_0/Conv2D"
  op: "Conv2D"
  input: "cnn_model/StatefulPartitionedCall/StatefulPartitionedCall/activation_3/Relu"
  input: "cnn_model/StatefulPartitionedCall/StatefulPartitionedCall/CNN2x2_0/Conv2D/ReadVariableOp"
  attr {
    key: "T"
    value {
      type: DT_FLOAT
    }
  }
  attr {
    key: "data_format"
    value {
      s: "NHWC"
    }
  }
  attr {
    key: "dilations"
    value {
      list {
        i: 1
        i: 1
        i: 1
        i: 1
      }
    }
  }
  attr {
    key: "explicit_paddings"
    value {
      list {
      }
    }
  }
  attr {
    key: "padding"
    value {
      s: "VALID"
    }
  }
  attr {
    key: "strides"
    value {
      list {
        i: 1
        i: 1
        i: 1
        i: 1
      }
    }
  }
  attr {
    key: "use_cudnn_on_gpu"
    value {
      b: true
    }
  }
}
node {
  name: "Func/cnn_model/StatefulPartitionedCall/StatefulPartitionedCall/input/_98"
  op: "Identity"
  input: "Func/cnn_model/StatefulPartitionedCall/input/_26"
  input: "^Func/cnn_model/StatefulPartitionedCall/StatefulPartitionedCall/input_control_node/_71"
  attr {
    key: "T"
    value {
      type: DT_FLOAT
    }
  }
}
node {
  name: "cnn_model/StatefulPartitionedCall/StatefulPartitionedCall/CNN2x2_0/BiasAdd/ReadVariableOp"
  op: "Identity"
  input: "Func/cnn_model/StatefulPartitionedCall/StatefulPartitionedCall/input/_98"
  attr {
    key: "T"
    value {
      type: DT_FLOAT
    }
  }
}
node {
  name: "cnn_model/StatefulPartitionedCall/StatefulPartitionedCall/CNN2x2_0/BiasAdd"
  op: "BiasAdd"
  input: "cnn_model/StatefulPartitionedCall/StatefulPartitionedCall/CNN2x2_0/Conv2D"
  input: "cnn_model/StatefulPartitionedCall/StatefulPartitionedCall/CNN2x2_0/BiasAdd/ReadVariableOp"
  attr {
    key: "T"
    value {
      type: DT_FLOAT
    }
  }
  attr {
    key: "data_format"
    value {
      s: "NHWC"
    }
  }
}
node {
  name: "Func/cnn_model/StatefulPartitionedCall/StatefulPartitionedCall/input/_99"
  op: "Identity"
  input: "Func/cnn_model/StatefulPartitionedCall/input/_27"
  input: "^Func/cnn_model/StatefulPartitionedCall/StatefulPartitionedCall/input_control_node/_71"
  attr {
    key: "T"
    value {
      type: DT_FLOAT
    }
  }
}
node {
  name: "cnn_model/StatefulPartitionedCall/StatefulPartitionedCall/batch_normalization_CNN2x2_0/ReadVariableOp"
  op: "Identity"
  input: "Func/cnn_model/StatefulPartitionedCall/StatefulPartitionedCall/input/_99"
  attr {
    key: "T"
    value {
      type: DT_FLOAT
    }
  }
}
node {
  name: "Func/cnn_model/StatefulPartitionedCall/StatefulPartitionedCall/input/_100"
  op: "Identity"
  input: "Func/cnn_model/StatefulPartitionedCall/input/_28"
  input: "^Func/cnn_model/StatefulPartitionedCall/StatefulPartitionedCall/input_control_node/_71"
  attr {
    key: "T"
    value {
      type: DT_FLOAT
    }
  }
}
node {
  name: "cnn_model/StatefulPartitionedCall/StatefulPartitionedCall/batch_normalization_CNN2x2_0/ReadVariableOp_1"
  op: "Identity"
  input: "Func/cnn_model/StatefulPartitionedCall/StatefulPartitionedCall/input/_100"
  attr {
    key: "T"
    value {
      type: DT_FLOAT
    }
  }
}
node {
  name: "Func/cnn_model/StatefulPartitionedCall/StatefulPartitionedCall/input/_101"
  op: "Identity"
  input: "Func/cnn_model/StatefulPartitionedCall/input/_29"
  input: "^Func/cnn_model/StatefulPartitionedCall/StatefulPartitionedCall/input_control_node/_71"
  attr {
    key: "T"
    value {
      type: DT_FLOAT
    }
  }
}
node {
  name: "cnn_model/StatefulPartitionedCall/StatefulPartitionedCall/batch_normalization_CNN2x2_0/FusedBatchNormV3/ReadVariableOp"
  op: "Identity"
  input: "Func/cnn_model/StatefulPartitionedCall/StatefulPartitionedCall/input/_101"
  attr {
    key: "T"
    value {
      type: DT_FLOAT
    }
  }
}
node {
  name: "Func/cnn_model/StatefulPartitionedCall/StatefulPartitionedCall/input/_102"
  op: "Identity"
  input: "Func/cnn_model/StatefulPartitionedCall/input/_30"
  input: "^Func/cnn_model/StatefulPartitionedCall/StatefulPartitionedCall/input_control_node/_71"
  attr {
    key: "T"
    value {
      type: DT_FLOAT
    }
  }
}
node {
  name: "cnn_model/StatefulPartitionedCall/StatefulPartitionedCall/batch_normalization_CNN2x2_0/FusedBatchNormV3/ReadVariableOp_1"
  op: "Identity"
  input: "Func/cnn_model/StatefulPartitionedCall/StatefulPartitionedCall/input/_102"
  attr {
    key: "T"
    value {
      type: DT_FLOAT
    }
  }
}
node {
  name: "cnn_model/StatefulPartitionedCall/StatefulPartitionedCall/batch_normalization_CNN2x2_0/FusedBatchNormV3"
  op: "FusedBatchNormV3"
  input: "cnn_model/StatefulPartitionedCall/StatefulPartitionedCall/CNN2x2_0/BiasAdd"
  input: "cnn_model/StatefulPartitionedCall/StatefulPartitionedCall/batch_normalization_CNN2x2_0/ReadVariableOp"
  input: "cnn_model/StatefulPartitionedCall/StatefulPartitionedCall/batch_normalization_CNN2x2_0/ReadVariableOp_1"
  input: "cnn_model/StatefulPartitionedCall/StatefulPartitionedCall/batch_normalization_CNN2x2_0/FusedBatchNormV3/ReadVariableOp"
  input: "cnn_model/StatefulPartitionedCall/StatefulPartitionedCall/batch_normalization_CNN2x2_0/FusedBatchNormV3/ReadVariableOp_1"
  attr {
    key: "T"
    value {
      type: DT_FLOAT
    }
  }
  attr {
    key: "U"
    value {
      type: DT_FLOAT
    }
  }
  attr {
    key: "data_format"
    value {
      s: "NHWC"
    }
  }
  attr {
    key: "epsilon"
    value {
      f: 0.0010000000474974513
    }
  }
  attr {
    key: "exponential_avg_factor"
    value {
      f: 1.0
    }
  }
  attr {
    key: "is_training"
    value {
      b: false
    }
  }
}
node {
  name: "cnn_model/StatefulPartitionedCall/StatefulPartitionedCall/activation_4/Relu"
  op: "Relu"
  input: "cnn_model/StatefulPartitionedCall/StatefulPartitionedCall/batch_normalization_CNN2x2_0/FusedBatchNormV3"
  attr {
    key: "T"
    value {
      type: DT_FLOAT
    }
  }
}
node {
  name: "Func/cnn_model/StatefulPartitionedCall/StatefulPartitionedCall/input/_103"
  op: "Identity"
  input: "Func/cnn_model/StatefulPartitionedCall/input/_31"
  input: "^Func/cnn_model/StatefulPartitionedCall/StatefulPartitionedCall/input_control_node/_71"
  attr {
    key: "T"
    value {
      type: DT_FLOAT
    }
  }
}
node {
  name: "cnn_model/StatefulPartitionedCall/StatefulPartitionedCall/CNN2x2_1/Conv2D/ReadVariableOp"
  op: "Identity"
  input: "Func/cnn_model/StatefulPartitionedCall/StatefulPartitionedCall/input/_103"
  attr {
    key: "T"
    value {
      type: DT_FLOAT
    }
  }
}
node {
  name: "cnn_model/StatefulPartitionedCall/StatefulPartitionedCall/CNN2x2_1/Conv2D"
  op: "Conv2D"
  input: "cnn_model/StatefulPartitionedCall/StatefulPartitionedCall/activation_4/Relu"
  input: "cnn_model/StatefulPartitionedCall/StatefulPartitionedCall/CNN2x2_1/Conv2D/ReadVariableOp"
  attr {
    key: "T"
    value {
      type: DT_FLOAT
    }
  }
  attr {
    key: "data_format"
    value {
      s: "NHWC"
    }
  }
  attr {
    key: "dilations"
    value {
      list {
        i: 1
        i: 1
        i: 1
        i: 1
      }
    }
  }
  attr {
    key: "explicit_paddings"
    value {
      list {
      }
    }
  }
  attr {
    key: "padding"
    value {
      s: "VALID"
    }
  }
  attr {
    key: "strides"
    value {
      list {
        i: 1
        i: 1
        i: 1
        i: 1
      }
    }
  }
  attr {
    key: "use_cudnn_on_gpu"
    value {
      b: true
    }
  }
}
node {
  name: "Func/cnn_model/StatefulPartitionedCall/StatefulPartitionedCall/input/_104"
  op: "Identity"
  input: "Func/cnn_model/StatefulPartitionedCall/input/_32"
  input: "^Func/cnn_model/StatefulPartitionedCall/StatefulPartitionedCall/input_control_node/_71"
  attr {
    key: "T"
    value {
      type: DT_FLOAT
    }
  }
}
node {
  name: "cnn_model/StatefulPartitionedCall/StatefulPartitionedCall/CNN2x2_1/BiasAdd/ReadVariableOp"
  op: "Identity"
  input: "Func/cnn_model/StatefulPartitionedCall/StatefulPartitionedCall/input/_104"
  attr {
    key: "T"
    value {
      type: DT_FLOAT
    }
  }
}
node {
  name: "cnn_model/StatefulPartitionedCall/StatefulPartitionedCall/CNN2x2_1/BiasAdd"
  op: "BiasAdd"
  input: "cnn_model/StatefulPartitionedCall/StatefulPartitionedCall/CNN2x2_1/Conv2D"
  input: "cnn_model/StatefulPartitionedCall/StatefulPartitionedCall/CNN2x2_1/BiasAdd/ReadVariableOp"
  attr {
    key: "T"
    value {
      type: DT_FLOAT
    }
  }
  attr {
    key: "data_format"
    value {
      s: "NHWC"
    }
  }
}
node {
  name: "Func/cnn_model/StatefulPartitionedCall/StatefulPartitionedCall/input/_105"
  op: "Identity"
  input: "Func/cnn_model/StatefulPartitionedCall/input/_33"
  input: "^Func/cnn_model/StatefulPartitionedCall/StatefulPartitionedCall/input_control_node/_71"
  attr {
    key: "T"
    value {
      type: DT_FLOAT
    }
  }
}
node {
  name: "cnn_model/StatefulPartitionedCall/StatefulPartitionedCall/batch_normalization_CNN2x2_1/ReadVariableOp"
  op: "Identity"
  input: "Func/cnn_model/StatefulPartitionedCall/StatefulPartitionedCall/input/_105"
  attr {
    key: "T"
    value {
      type: DT_FLOAT
    }
  }
}
node {
  name: "Func/cnn_model/StatefulPartitionedCall/StatefulPartitionedCall/input/_106"
  op: "Identity"
  input: "Func/cnn_model/StatefulPartitionedCall/input/_34"
  input: "^Func/cnn_model/StatefulPartitionedCall/StatefulPartitionedCall/input_control_node/_71"
  attr {
    key: "T"
    value {
      type: DT_FLOAT
    }
  }
}
node {
  name: "cnn_model/StatefulPartitionedCall/StatefulPartitionedCall/batch_normalization_CNN2x2_1/ReadVariableOp_1"
  op: "Identity"
  input: "Func/cnn_model/StatefulPartitionedCall/StatefulPartitionedCall/input/_106"
  attr {
    key: "T"
    value {
      type: DT_FLOAT
    }
  }
}
node {
  name: "Func/cnn_model/StatefulPartitionedCall/StatefulPartitionedCall/input/_107"
  op: "Identity"
  input: "Func/cnn_model/StatefulPartitionedCall/input/_35"
  input: "^Func/cnn_model/StatefulPartitionedCall/StatefulPartitionedCall/input_control_node/_71"
  attr {
    key: "T"
    value {
      type: DT_FLOAT
    }
  }
}
node {
  name: "cnn_model/StatefulPartitionedCall/StatefulPartitionedCall/batch_normalization_CNN2x2_1/FusedBatchNormV3/ReadVariableOp"
  op: "Identity"
  input: "Func/cnn_model/StatefulPartitionedCall/StatefulPartitionedCall/input/_107"
  attr {
    key: "T"
    value {
      type: DT_FLOAT
    }
  }
}
node {
  name: "Func/cnn_model/StatefulPartitionedCall/StatefulPartitionedCall/input/_108"
  op: "Identity"
  input: "Func/cnn_model/StatefulPartitionedCall/input/_36"
  input: "^Func/cnn_model/StatefulPartitionedCall/StatefulPartitionedCall/input_control_node/_71"
  attr {
    key: "T"
    value {
      type: DT_FLOAT
    }
  }
}
node {
  name: "cnn_model/StatefulPartitionedCall/StatefulPartitionedCall/batch_normalization_CNN2x2_1/FusedBatchNormV3/ReadVariableOp_1"
  op: "Identity"
  input: "Func/cnn_model/StatefulPartitionedCall/StatefulPartitionedCall/input/_108"
  attr {
    key: "T"
    value {
      type: DT_FLOAT
    }
  }
}
node {
  name: "cnn_model/StatefulPartitionedCall/StatefulPartitionedCall/batch_normalization_CNN2x2_1/FusedBatchNormV3"
  op: "FusedBatchNormV3"
  input: "cnn_model/StatefulPartitionedCall/StatefulPartitionedCall/CNN2x2_1/BiasAdd"
  input: "cnn_model/StatefulPartitionedCall/StatefulPartitionedCall/batch_normalization_CNN2x2_1/ReadVariableOp"
  input: "cnn_model/StatefulPartitionedCall/StatefulPartitionedCall/batch_normalization_CNN2x2_1/ReadVariableOp_1"
  input: "cnn_model/StatefulPartitionedCall/StatefulPartitionedCall/batch_normalization_CNN2x2_1/FusedBatchNormV3/ReadVariableOp"
  input: "cnn_model/StatefulPartitionedCall/StatefulPartitionedCall/batch_normalization_CNN2x2_1/FusedBatchNormV3/ReadVariableOp_1"
  attr {
    key: "T"
    value {
      type: DT_FLOAT
    }
  }
  attr {
    key: "U"
    value {
      type: DT_FLOAT
    }
  }
  attr {
    key: "data_format"
    value {
      s: "NHWC"
    }
  }
  attr {
    key: "epsilon"
    value {
      f: 0.0010000000474974513
    }
  }
  attr {
    key: "exponential_avg_factor"
    value {
      f: 1.0
    }
  }
  attr {
    key: "is_training"
    value {
      b: false
    }
  }
}
node {
  name: "cnn_model/StatefulPartitionedCall/StatefulPartitionedCall/activation_5/Relu"
  op: "Relu"
  input: "cnn_model/StatefulPartitionedCall/StatefulPartitionedCall/batch_normalization_CNN2x2_1/FusedBatchNormV3"
  attr {
    key: "T"
    value {
      type: DT_FLOAT
    }
  }
}
node {
  name: "Func/cnn_model/StatefulPartitionedCall/StatefulPartitionedCall/input/_109"
  op: "Identity"
  input: "Func/cnn_model/StatefulPartitionedCall/input/_37"
  input: "^Func/cnn_model/StatefulPartitionedCall/StatefulPartitionedCall/input_control_node/_71"
  attr {
    key: "T"
    value {
      type: DT_FLOAT
    }
  }
}
node {
  name: "cnn_model/StatefulPartitionedCall/StatefulPartitionedCall/CNN2x2_2/Conv2D/ReadVariableOp"
  op: "Identity"
  input: "Func/cnn_model/StatefulPartitionedCall/StatefulPartitionedCall/input/_109"
  attr {
    key: "T"
    value {
      type: DT_FLOAT
    }
  }
}
node {
  name: "cnn_model/StatefulPartitionedCall/StatefulPartitionedCall/CNN2x2_2/Conv2D"
  op: "Conv2D"
  input: "cnn_model/StatefulPartitionedCall/StatefulPartitionedCall/activation_5/Relu"
  input: "cnn_model/StatefulPartitionedCall/StatefulPartitionedCall/CNN2x2_2/Conv2D/ReadVariableOp"
  attr {
    key: "T"
    value {
      type: DT_FLOAT
    }
  }
  attr {
    key: "data_format"
    value {
      s: "NHWC"
    }
  }
  attr {
    key: "dilations"
    value {
      list {
        i: 1
        i: 1
        i: 1
        i: 1
      }
    }
  }
  attr {
    key: "explicit_paddings"
    value {
      list {
      }
    }
  }
  attr {
    key: "padding"
    value {
      s: "VALID"
    }
  }
  attr {
    key: "strides"
    value {
      list {
        i: 1
        i: 1
        i: 1
        i: 1
      }
    }
  }
  attr {
    key: "use_cudnn_on_gpu"
    value {
      b: true
    }
  }
}
node {
  name: "Func/cnn_model/StatefulPartitionedCall/StatefulPartitionedCall/input/_110"
  op: "Identity"
  input: "Func/cnn_model/StatefulPartitionedCall/input/_38"
  input: "^Func/cnn_model/StatefulPartitionedCall/StatefulPartitionedCall/input_control_node/_71"
  attr {
    key: "T"
    value {
      type: DT_FLOAT
    }
  }
}
node {
  name: "cnn_model/StatefulPartitionedCall/StatefulPartitionedCall/CNN2x2_2/BiasAdd/ReadVariableOp"
  op: "Identity"
  input: "Func/cnn_model/StatefulPartitionedCall/StatefulPartitionedCall/input/_110"
  attr {
    key: "T"
    value {
      type: DT_FLOAT
    }
  }
}
node {
  name: "cnn_model/StatefulPartitionedCall/StatefulPartitionedCall/CNN2x2_2/BiasAdd"
  op: "BiasAdd"
  input: "cnn_model/StatefulPartitionedCall/StatefulPartitionedCall/CNN2x2_2/Conv2D"
  input: "cnn_model/StatefulPartitionedCall/StatefulPartitionedCall/CNN2x2_2/BiasAdd/ReadVariableOp"
  attr {
    key: "T"
    value {
      type: DT_FLOAT
    }
  }
  attr {
    key: "data_format"
    value {
      s: "NHWC"
    }
  }
}
node {
  name: "Func/cnn_model/StatefulPartitionedCall/StatefulPartitionedCall/input/_111"
  op: "Identity"
  input: "Func/cnn_model/StatefulPartitionedCall/input/_39"
  input: "^Func/cnn_model/StatefulPartitionedCall/StatefulPartitionedCall/input_control_node/_71"
  attr {
    key: "T"
    value {
      type: DT_FLOAT
    }
  }
}
node {
  name: "cnn_model/StatefulPartitionedCall/StatefulPartitionedCall/batch_normalization_CNN2x2_2/ReadVariableOp"
  op: "Identity"
  input: "Func/cnn_model/StatefulPartitionedCall/StatefulPartitionedCall/input/_111"
  attr {
    key: "T"
    value {
      type: DT_FLOAT
    }
  }
}
node {
  name: "Func/cnn_model/StatefulPartitionedCall/StatefulPartitionedCall/input/_112"
  op: "Identity"
  input: "Func/cnn_model/StatefulPartitionedCall/input/_40"
  input: "^Func/cnn_model/StatefulPartitionedCall/StatefulPartitionedCall/input_control_node/_71"
  attr {
    key: "T"
    value {
      type: DT_FLOAT
    }
  }
}
node {
  name: "cnn_model/StatefulPartitionedCall/StatefulPartitionedCall/batch_normalization_CNN2x2_2/ReadVariableOp_1"
  op: "Identity"
  input: "Func/cnn_model/StatefulPartitionedCall/StatefulPartitionedCall/input/_112"
  attr {
    key: "T"
    value {
      type: DT_FLOAT
    }
  }
}
node {
  name: "Func/cnn_model/StatefulPartitionedCall/StatefulPartitionedCall/input/_113"
  op: "Identity"
  input: "Func/cnn_model/StatefulPartitionedCall/input/_41"
  input: "^Func/cnn_model/StatefulPartitionedCall/StatefulPartitionedCall/input_control_node/_71"
  attr {
    key: "T"
    value {
      type: DT_FLOAT
    }
  }
}
node {
  name: "cnn_model/StatefulPartitionedCall/StatefulPartitionedCall/batch_normalization_CNN2x2_2/FusedBatchNormV3/ReadVariableOp"
  op: "Identity"
  input: "Func/cnn_model/StatefulPartitionedCall/StatefulPartitionedCall/input/_113"
  attr {
    key: "T"
    value {
      type: DT_FLOAT
    }
  }
}
node {
  name: "Func/cnn_model/StatefulPartitionedCall/StatefulPartitionedCall/input/_114"
  op: "Identity"
  input: "Func/cnn_model/StatefulPartitionedCall/input/_42"
  input: "^Func/cnn_model/StatefulPartitionedCall/StatefulPartitionedCall/input_control_node/_71"
  attr {
    key: "T"
    value {
      type: DT_FLOAT
    }
  }
}
node {
  name: "cnn_model/StatefulPartitionedCall/StatefulPartitionedCall/batch_normalization_CNN2x2_2/FusedBatchNormV3/ReadVariableOp_1"
  op: "Identity"
  input: "Func/cnn_model/StatefulPartitionedCall/StatefulPartitionedCall/input/_114"
  attr {
    key: "T"
    value {
      type: DT_FLOAT
    }
  }
}
node {
  name: "cnn_model/StatefulPartitionedCall/StatefulPartitionedCall/batch_normalization_CNN2x2_2/FusedBatchNormV3"
  op: "FusedBatchNormV3"
  input: "cnn_model/StatefulPartitionedCall/StatefulPartitionedCall/CNN2x2_2/BiasAdd"
  input: "cnn_model/StatefulPartitionedCall/StatefulPartitionedCall/batch_normalization_CNN2x2_2/ReadVariableOp"
  input: "cnn_model/StatefulPartitionedCall/StatefulPartitionedCall/batch_normalization_CNN2x2_2/ReadVariableOp_1"
  input: "cnn_model/StatefulPartitionedCall/StatefulPartitionedCall/batch_normalization_CNN2x2_2/FusedBatchNormV3/ReadVariableOp"
  input: "cnn_model/StatefulPartitionedCall/StatefulPartitionedCall/batch_normalization_CNN2x2_2/FusedBatchNormV3/ReadVariableOp_1"
  attr {
    key: "T"
    value {
      type: DT_FLOAT
    }
  }
  attr {
    key: "U"
    value {
      type: DT_FLOAT
    }
  }
  attr {
    key: "data_format"
    value {
      s: "NHWC"
    }
  }
  attr {
    key: "epsilon"
    value {
      f: 0.0010000000474974513
    }
  }
  attr {
    key: "exponential_avg_factor"
    value {
      f: 1.0
    }
  }
  attr {
    key: "is_training"
    value {
      b: false
    }
  }
}
node {
  name: "cnn_model/StatefulPartitionedCall/StatefulPartitionedCall/activation_6/Relu"
  op: "Relu"
  input: "cnn_model/StatefulPartitionedCall/StatefulPartitionedCall/batch_normalization_CNN2x2_2/FusedBatchNormV3"
  attr {
    key: "T"
    value {
      type: DT_FLOAT
    }
  }
}
node {
  name: "Func/cnn_model/StatefulPartitionedCall/StatefulPartitionedCall/input/_115"
  op: "Identity"
  input: "Func/cnn_model/StatefulPartitionedCall/input/_43"
  input: "^Func/cnn_model/StatefulPartitionedCall/StatefulPartitionedCall/input_control_node/_71"
  attr {
    key: "T"
    value {
      type: DT_FLOAT
    }
  }
}
node {
  name: "cnn_model/StatefulPartitionedCall/StatefulPartitionedCall/CNN2x2_3/Conv2D/ReadVariableOp"
  op: "Identity"
  input: "Func/cnn_model/StatefulPartitionedCall/StatefulPartitionedCall/input/_115"
  attr {
    key: "T"
    value {
      type: DT_FLOAT
    }
  }
}
node {
  name: "cnn_model/StatefulPartitionedCall/StatefulPartitionedCall/CNN2x2_3/Conv2D"
  op: "Conv2D"
  input: "cnn_model/StatefulPartitionedCall/StatefulPartitionedCall/activation_6/Relu"
  input: "cnn_model/StatefulPartitionedCall/StatefulPartitionedCall/CNN2x2_3/Conv2D/ReadVariableOp"
  attr {
    key: "T"
    value {
      type: DT_FLOAT
    }
  }
  attr {
    key: "data_format"
    value {
      s: "NHWC"
    }
  }
  attr {
    key: "dilations"
    value {
      list {
        i: 1
        i: 1
        i: 1
        i: 1
      }
    }
  }
  attr {
    key: "explicit_paddings"
    value {
      list {
      }
    }
  }
  attr {
    key: "padding"
    value {
      s: "VALID"
    }
  }
  attr {
    key: "strides"
    value {
      list {
        i: 1
        i: 1
        i: 1
        i: 1
      }
    }
  }
  attr {
    key: "use_cudnn_on_gpu"
    value {
      b: true
    }
  }
}
node {
  name: "Func/cnn_model/StatefulPartitionedCall/StatefulPartitionedCall/input/_116"
  op: "Identity"
  input: "Func/cnn_model/StatefulPartitionedCall/input/_44"
  input: "^Func/cnn_model/StatefulPartitionedCall/StatefulPartitionedCall/input_control_node/_71"
  attr {
    key: "T"
    value {
      type: DT_FLOAT
    }
  }
}
node {
  name: "cnn_model/StatefulPartitionedCall/StatefulPartitionedCall/CNN2x2_3/BiasAdd/ReadVariableOp"
  op: "Identity"
  input: "Func/cnn_model/StatefulPartitionedCall/StatefulPartitionedCall/input/_116"
  attr {
    key: "T"
    value {
      type: DT_FLOAT
    }
  }
}
node {
  name: "cnn_model/StatefulPartitionedCall/StatefulPartitionedCall/CNN2x2_3/BiasAdd"
  op: "BiasAdd"
  input: "cnn_model/StatefulPartitionedCall/StatefulPartitionedCall/CNN2x2_3/Conv2D"
  input: "cnn_model/StatefulPartitionedCall/StatefulPartitionedCall/CNN2x2_3/BiasAdd/ReadVariableOp"
  attr {
    key: "T"
    value {
      type: DT_FLOAT
    }
  }
  attr {
    key: "data_format"
    value {
      s: "NHWC"
    }
  }
}
node {
  name: "Func/cnn_model/StatefulPartitionedCall/StatefulPartitionedCall/input/_117"
  op: "Identity"
  input: "Func/cnn_model/StatefulPartitionedCall/input/_45"
  input: "^Func/cnn_model/StatefulPartitionedCall/StatefulPartitionedCall/input_control_node/_71"
  attr {
    key: "T"
    value {
      type: DT_FLOAT
    }
  }
}
node {
  name: "cnn_model/StatefulPartitionedCall/StatefulPartitionedCall/batch_normalization_CNN2x2_3/ReadVariableOp"
  op: "Identity"
  input: "Func/cnn_model/StatefulPartitionedCall/StatefulPartitionedCall/input/_117"
  attr {
    key: "T"
    value {
      type: DT_FLOAT
    }
  }
}
node {
  name: "Func/cnn_model/StatefulPartitionedCall/StatefulPartitionedCall/input/_118"
  op: "Identity"
  input: "Func/cnn_model/StatefulPartitionedCall/input/_46"
  input: "^Func/cnn_model/StatefulPartitionedCall/StatefulPartitionedCall/input_control_node/_71"
  attr {
    key: "T"
    value {
      type: DT_FLOAT
    }
  }
}
node {
  name: "cnn_model/StatefulPartitionedCall/StatefulPartitionedCall/batch_normalization_CNN2x2_3/ReadVariableOp_1"
  op: "Identity"
  input: "Func/cnn_model/StatefulPartitionedCall/StatefulPartitionedCall/input/_118"
  attr {
    key: "T"
    value {
      type: DT_FLOAT
    }
  }
}
node {
  name: "Func/cnn_model/StatefulPartitionedCall/StatefulPartitionedCall/input/_119"
  op: "Identity"
  input: "Func/cnn_model/StatefulPartitionedCall/input/_47"
  input: "^Func/cnn_model/StatefulPartitionedCall/StatefulPartitionedCall/input_control_node/_71"
  attr {
    key: "T"
    value {
      type: DT_FLOAT
    }
  }
}
node {
  name: "cnn_model/StatefulPartitionedCall/StatefulPartitionedCall/batch_normalization_CNN2x2_3/FusedBatchNormV3/ReadVariableOp"
  op: "Identity"
  input: "Func/cnn_model/StatefulPartitionedCall/StatefulPartitionedCall/input/_119"
  attr {
    key: "T"
    value {
      type: DT_FLOAT
    }
  }
}
node {
  name: "Func/cnn_model/StatefulPartitionedCall/StatefulPartitionedCall/input/_120"
  op: "Identity"
  input: "Func/cnn_model/StatefulPartitionedCall/input/_48"
  input: "^Func/cnn_model/StatefulPartitionedCall/StatefulPartitionedCall/input_control_node/_71"
  attr {
    key: "T"
    value {
      type: DT_FLOAT
    }
  }
}
node {
  name: "cnn_model/StatefulPartitionedCall/StatefulPartitionedCall/batch_normalization_CNN2x2_3/FusedBatchNormV3/ReadVariableOp_1"
  op: "Identity"
  input: "Func/cnn_model/StatefulPartitionedCall/StatefulPartitionedCall/input/_120"
  attr {
    key: "T"
    value {
      type: DT_FLOAT
    }
  }
}
node {
  name: "cnn_model/StatefulPartitionedCall/StatefulPartitionedCall/batch_normalization_CNN2x2_3/FusedBatchNormV3"
  op: "FusedBatchNormV3"
  input: "cnn_model/StatefulPartitionedCall/StatefulPartitionedCall/CNN2x2_3/BiasAdd"
  input: "cnn_model/StatefulPartitionedCall/StatefulPartitionedCall/batch_normalization_CNN2x2_3/ReadVariableOp"
  input: "cnn_model/StatefulPartitionedCall/StatefulPartitionedCall/batch_normalization_CNN2x2_3/ReadVariableOp_1"
  input: "cnn_model/StatefulPartitionedCall/StatefulPartitionedCall/batch_normalization_CNN2x2_3/FusedBatchNormV3/ReadVariableOp"
  input: "cnn_model/StatefulPartitionedCall/StatefulPartitionedCall/batch_normalization_CNN2x2_3/FusedBatchNormV3/ReadVariableOp_1"
  attr {
    key: "T"
    value {
      type: DT_FLOAT
    }
  }
  attr {
    key: "U"
    value {
      type: DT_FLOAT
    }
  }
  attr {
    key: "data_format"
    value {
      s: "NHWC"
    }
  }
  attr {
    key: "epsilon"
    value {
      f: 0.0010000000474974513
    }
  }
  attr {
    key: "exponential_avg_factor"
    value {
      f: 1.0
    }
  }
  attr {
    key: "is_training"
    value {
      b: false
    }
  }
}
node {
  name: "cnn_model/StatefulPartitionedCall/StatefulPartitionedCall/activation_7/Relu"
  op: "Relu"
  input: "cnn_model/StatefulPartitionedCall/StatefulPartitionedCall/batch_normalization_CNN2x2_3/FusedBatchNormV3"
  attr {
    key: "T"
    value {
      type: DT_FLOAT
    }
  }
}
node {
  name: "cnn_model/StatefulPartitionedCall/StatefulPartitionedCall/Shape"
  op: "Shape"
  input: "cnn_model/StatefulPartitionedCall/StatefulPartitionedCall/activation_7/Relu"
  attr {
    key: "T"
    value {
      type: DT_FLOAT
    }
  }
  attr {
    key: "out_type"
    value {
      type: DT_INT32
    }
  }
}
node {
  name: "cnn_model/StatefulPartitionedCall/StatefulPartitionedCall/strided_slice/stack"
  op: "Const"
  input: "^Func/cnn_model/StatefulPartitionedCall/StatefulPartitionedCall/input_control_node/_71"
  attr {
    key: "dtype"
    value {
      type: DT_INT32
    }
  }
  attr {
    key: "value"
    value {
      tensor {
        dtype: DT_INT32
        tensor_shape {
          dim {
            size: 1
          }
        }
        int_val: 0
      }
    }
  }
}
node {
  name: "cnn_model/StatefulPartitionedCall/StatefulPartitionedCall/strided_slice/stack_1"
  op: "Const"
  input: "^Func/cnn_model/StatefulPartitionedCall/StatefulPartitionedCall/input_control_node/_71"
  attr {
    key: "dtype"
    value {
      type: DT_INT32
    }
  }
  attr {
    key: "value"
    value {
      tensor {
        dtype: DT_INT32
        tensor_shape {
          dim {
            size: 1
          }
        }
        int_val: 1
      }
    }
  }
}
node {
  name: "cnn_model/StatefulPartitionedCall/StatefulPartitionedCall/strided_slice/stack_2"
  op: "Const"
  input: "^Func/cnn_model/StatefulPartitionedCall/StatefulPartitionedCall/input_control_node/_71"
  attr {
    key: "dtype"
    value {
      type: DT_INT32
    }
  }
  attr {
    key: "value"
    value {
      tensor {
        dtype: DT_INT32
        tensor_shape {
          dim {
            size: 1
          }
        }
        int_val: 1
      }
    }
  }
}
node {
  name: "cnn_model/StatefulPartitionedCall/StatefulPartitionedCall/strided_slice"
  op: "StridedSlice"
  input: "cnn_model/StatefulPartitionedCall/StatefulPartitionedCall/Shape"
  input: "cnn_model/StatefulPartitionedCall/StatefulPartitionedCall/strided_slice/stack"
  input: "cnn_model/StatefulPartitionedCall/StatefulPartitionedCall/strided_slice/stack_1"
  input: "cnn_model/StatefulPartitionedCall/StatefulPartitionedCall/strided_slice/stack_2"
  attr {
    key: "Index"
    value {
      type: DT_INT32
    }
  }
  attr {
    key: "T"
    value {
      type: DT_INT32
    }
  }
  attr {
    key: "begin_mask"
    value {
      i: 0
    }
  }
  attr {
    key: "ellipsis_mask"
    value {
      i: 0
    }
  }
  attr {
    key: "end_mask"
    value {
      i: 0
    }
  }
  attr {
    key: "new_axis_mask"
    value {
      i: 0
    }
  }
  attr {
    key: "shrink_axis_mask"
    value {
      i: 1
    }
  }
}
node {
  name: "cnn_model/StatefulPartitionedCall/StatefulPartitionedCall/strided_slice_1/stack"
  op: "Const"
  input: "^Func/cnn_model/StatefulPartitionedCall/StatefulPartitionedCall/input_control_node/_71"
  attr {
    key: "dtype"
    value {
      type: DT_INT32
    }
  }
  attr {
    key: "value"
    value {
      tensor {
        dtype: DT_INT32
        tensor_shape {
          dim {
            size: 1
          }
        }
        int_val: 1
      }
    }
  }
}
node {
  name: "cnn_model/StatefulPartitionedCall/StatefulPartitionedCall/strided_slice_1/stack_1"
  op: "Const"
  input: "^Func/cnn_model/StatefulPartitionedCall/StatefulPartitionedCall/input_control_node/_71"
  attr {
    key: "dtype"
    value {
      type: DT_INT32
    }
  }
  attr {
    key: "value"
    value {
      tensor {
        dtype: DT_INT32
        tensor_shape {
          dim {
            size: 1
          }
        }
        int_val: 2
      }
    }
  }
}
node {
  name: "cnn_model/StatefulPartitionedCall/StatefulPartitionedCall/strided_slice_1/stack_2"
  op: "Const"
  input: "^Func/cnn_model/StatefulPartitionedCall/StatefulPartitionedCall/input_control_node/_71"
  attr {
    key: "dtype"
    value {
      type: DT_INT32
    }
  }
  attr {
    key: "value"
    value {
      tensor {
        dtype: DT_INT32
        tensor_shape {
          dim {
            size: 1
          }
        }
        int_val: 1
      }
    }
  }
}
node {
  name: "cnn_model/StatefulPartitionedCall/StatefulPartitionedCall/strided_slice_1"
  op: "StridedSlice"
  input: "cnn_model/StatefulPartitionedCall/StatefulPartitionedCall/Shape"
  input: "cnn_model/StatefulPartitionedCall/StatefulPartitionedCall/strided_slice_1/stack"
  input: "cnn_model/StatefulPartitionedCall/StatefulPartitionedCall/strided_slice_1/stack_1"
  input: "cnn_model/StatefulPartitionedCall/StatefulPartitionedCall/strided_slice_1/stack_2"
  attr {
    key: "Index"
    value {
      type: DT_INT32
    }
  }
  attr {
    key: "T"
    value {
      type: DT_INT32
    }
  }
  attr {
    key: "begin_mask"
    value {
      i: 0
    }
  }
  attr {
    key: "ellipsis_mask"
    value {
      i: 0
    }
  }
  attr {
    key: "end_mask"
    value {
      i: 0
    }
  }
  attr {
    key: "new_axis_mask"
    value {
      i: 0
    }
  }
  attr {
    key: "shrink_axis_mask"
    value {
      i: 1
    }
  }
}
node {
  name: "cnn_model/StatefulPartitionedCall/StatefulPartitionedCall/strided_slice_2/stack"
  op: "Const"
  input: "^Func/cnn_model/StatefulPartitionedCall/StatefulPartitionedCall/input_control_node/_71"
  attr {
    key: "dtype"
    value {
      type: DT_INT32
    }
  }
  attr {
    key: "value"
    value {
      tensor {
        dtype: DT_INT32
        tensor_shape {
          dim {
            size: 1
          }
        }
        int_val: 2
      }
    }
  }
}
node {
  name: "cnn_model/StatefulPartitionedCall/StatefulPartitionedCall/strided_slice_2/stack_1"
  op: "Const"
  input: "^Func/cnn_model/StatefulPartitionedCall/StatefulPartitionedCall/input_control_node/_71"
  attr {
    key: "dtype"
    value {
      type: DT_INT32
    }
  }
  attr {
    key: "value"
    value {
      tensor {
        dtype: DT_INT32
        tensor_shape {
          dim {
            size: 1
          }
        }
        int_val: 3
      }
    }
  }
}
node {
  name: "cnn_model/StatefulPartitionedCall/StatefulPartitionedCall/strided_slice_2/stack_2"
  op: "Const"
  input: "^Func/cnn_model/StatefulPartitionedCall/StatefulPartitionedCall/input_control_node/_71"
  attr {
    key: "dtype"
    value {
      type: DT_INT32
    }
  }
  attr {
    key: "value"
    value {
      tensor {
        dtype: DT_INT32
        tensor_shape {
          dim {
            size: 1
          }
        }
        int_val: 1
      }
    }
  }
}
node {
  name: "cnn_model/StatefulPartitionedCall/StatefulPartitionedCall/strided_slice_2"
  op: "StridedSlice"
  input: "cnn_model/StatefulPartitionedCall/StatefulPartitionedCall/Shape"
  input: "cnn_model/StatefulPartitionedCall/StatefulPartitionedCall/strided_slice_2/stack"
  input: "cnn_model/StatefulPartitionedCall/StatefulPartitionedCall/strided_slice_2/stack_1"
  input: "cnn_model/StatefulPartitionedCall/StatefulPartitionedCall/strided_slice_2/stack_2"
  attr {
    key: "Index"
    value {
      type: DT_INT32
    }
  }
  attr {
    key: "T"
    value {
      type: DT_INT32
    }
  }
  attr {
    key: "begin_mask"
    value {
      i: 0
    }
  }
  attr {
    key: "ellipsis_mask"
    value {
      i: 0
    }
  }
  attr {
    key: "end_mask"
    value {
      i: 0
    }
  }
  attr {
    key: "new_axis_mask"
    value {
      i: 0
    }
  }
  attr {
    key: "shrink_axis_mask"
    value {
      i: 1
    }
  }
}
node {
  name: "cnn_model/StatefulPartitionedCall/StatefulPartitionedCall/mul"
  op: "Mul"
  input: "cnn_model/StatefulPartitionedCall/StatefulPartitionedCall/strided_slice_1"
  input: "cnn_model/StatefulPartitionedCall/StatefulPartitionedCall/strided_slice_2"
  attr {
    key: "T"
    value {
      type: DT_INT32
    }
  }
}
node {
  name: "cnn_model/StatefulPartitionedCall/StatefulPartitionedCall/strided_slice_3/stack"
  op: "Const"
  input: "^Func/cnn_model/StatefulPartitionedCall/StatefulPartitionedCall/input_control_node/_71"
  attr {
    key: "dtype"
    value {
      type: DT_INT32
    }
  }
  attr {
    key: "value"
    value {
      tensor {
        dtype: DT_INT32
        tensor_shape {
          dim {
            size: 1
          }
        }
        int_val: 3
      }
    }
  }
}
node {
  name: "cnn_model/StatefulPartitionedCall/StatefulPartitionedCall/strided_slice_3/stack_1"
  op: "Const"
  input: "^Func/cnn_model/StatefulPartitionedCall/StatefulPartitionedCall/input_control_node/_71"
  attr {
    key: "dtype"
    value {
      type: DT_INT32
    }
  }
  attr {
    key: "value"
    value {
      tensor {
        dtype: DT_INT32
        tensor_shape {
          dim {
            size: 1
          }
        }
        int_val: 4
      }
    }
  }
}
node {
  name: "cnn_model/StatefulPartitionedCall/StatefulPartitionedCall/strided_slice_3/stack_2"
  op: "Const"
  input: "^Func/cnn_model/StatefulPartitionedCall/StatefulPartitionedCall/input_control_node/_71"
  attr {
    key: "dtype"
    value {
      type: DT_INT32
    }
  }
  attr {
    key: "value"
    value {
      tensor {
        dtype: DT_INT32
        tensor_shape {
          dim {
            size: 1
          }
        }
        int_val: 1
      }
    }
  }
}
node {
  name: "cnn_model/StatefulPartitionedCall/StatefulPartitionedCall/strided_slice_3"
  op: "StridedSlice"
  input: "cnn_model/StatefulPartitionedCall/StatefulPartitionedCall/Shape"
  input: "cnn_model/StatefulPartitionedCall/StatefulPartitionedCall/strided_slice_3/stack"
  input: "cnn_model/StatefulPartitionedCall/StatefulPartitionedCall/strided_slice_3/stack_1"
  input: "cnn_model/StatefulPartitionedCall/StatefulPartitionedCall/strided_slice_3/stack_2"
  attr {
    key: "Index"
    value {
      type: DT_INT32
    }
  }
  attr {
    key: "T"
    value {
      type: DT_INT32
    }
  }
  attr {
    key: "begin_mask"
    value {
      i: 0
    }
  }
  attr {
    key: "ellipsis_mask"
    value {
      i: 0
    }
  }
  attr {
    key: "end_mask"
    value {
      i: 0
    }
  }
  attr {
    key: "new_axis_mask"
    value {
      i: 0
    }
  }
  attr {
    key: "shrink_axis_mask"
    value {
      i: 1
    }
  }
}
node {
  name: "cnn_model/StatefulPartitionedCall/StatefulPartitionedCall/mul_1"
  op: "Mul"
  input: "cnn_model/StatefulPartitionedCall/StatefulPartitionedCall/mul"
  input: "cnn_model/StatefulPartitionedCall/StatefulPartitionedCall/strided_slice_3"
  attr {
    key: "T"
    value {
      type: DT_INT32
    }
  }
}
node {
  name: "cnn_model/StatefulPartitionedCall/StatefulPartitionedCall/Reshape/shape"
  op: "Pack"
  input: "cnn_model/StatefulPartitionedCall/StatefulPartitionedCall/strided_slice"
  input: "cnn_model/StatefulPartitionedCall/StatefulPartitionedCall/mul_1"
  attr {
    key: "N"
    value {
      i: 2
    }
  }
  attr {
    key: "T"
    value {
      type: DT_INT32
    }
  }
  attr {
    key: "axis"
    value {
      i: 0
    }
  }
}
node {
  name: "cnn_model/StatefulPartitionedCall/StatefulPartitionedCall/Reshape"
  op: "Reshape"
  input: "cnn_model/StatefulPartitionedCall/StatefulPartitionedCall/activation_7/Relu"
  input: "cnn_model/StatefulPartitionedCall/StatefulPartitionedCall/Reshape/shape"
  attr {
    key: "T"
    value {
      type: DT_FLOAT
    }
  }
  attr {
    key: "Tshape"
    value {
      type: DT_INT32
    }
  }
}
node {
  name: "Func/cnn_model/StatefulPartitionedCall/StatefulPartitionedCall/input/_121"
  op: "Identity"
  input: "Func/cnn_model/StatefulPartitionedCall/input/_49"
  input: "^Func/cnn_model/StatefulPartitionedCall/StatefulPartitionedCall/input_control_node/_71"
  attr {
    key: "T"
    value {
      type: DT_FLOAT
    }
  }
}
node {
  name: "cnn_model/StatefulPartitionedCall/StatefulPartitionedCall/dense_0/MatMul/ReadVariableOp"
  op: "Identity"
  input: "Func/cnn_model/StatefulPartitionedCall/StatefulPartitionedCall/input/_121"
  attr {
    key: "T"
    value {
      type: DT_FLOAT
    }
  }
}
node {
  name: "cnn_model/StatefulPartitionedCall/StatefulPartitionedCall/dense_0/MatMul"
  op: "MatMul"
  input: "cnn_model/StatefulPartitionedCall/StatefulPartitionedCall/Reshape"
  input: "cnn_model/StatefulPartitionedCall/StatefulPartitionedCall/dense_0/MatMul/ReadVariableOp"
  attr {
    key: "T"
    value {
      type: DT_FLOAT
    }
  }
  attr {
    key: "transpose_a"
    value {
      b: false
    }
  }
  attr {
    key: "transpose_b"
    value {
      b: false
    }
  }
}
node {
  name: "Func/cnn_model/StatefulPartitionedCall/StatefulPartitionedCall/input/_122"
  op: "Identity"
  input: "Func/cnn_model/StatefulPartitionedCall/input/_50"
  input: "^Func/cnn_model/StatefulPartitionedCall/StatefulPartitionedCall/input_control_node/_71"
  attr {
    key: "T"
    value {
      type: DT_FLOAT
    }
  }
}
node {
  name: "cnn_model/StatefulPartitionedCall/StatefulPartitionedCall/dense_0/BiasAdd/ReadVariableOp"
  op: "Identity"
  input: "Func/cnn_model/StatefulPartitionedCall/StatefulPartitionedCall/input/_122"
  attr {
    key: "T"
    value {
      type: DT_FLOAT
    }
  }
}
node {
  name: "cnn_model/StatefulPartitionedCall/StatefulPartitionedCall/dense_0/BiasAdd"
  op: "BiasAdd"
  input: "cnn_model/StatefulPartitionedCall/StatefulPartitionedCall/dense_0/MatMul"
  input: "cnn_model/StatefulPartitionedCall/StatefulPartitionedCall/dense_0/BiasAdd/ReadVariableOp"
  attr {
    key: "T"
    value {
      type: DT_FLOAT
    }
  }
  attr {
    key: "data_format"
    value {
      s: "NHWC"
    }
  }
}
node {
  name: "cnn_model/StatefulPartitionedCall/StatefulPartitionedCall/dense_0/Relu"
  op: "Relu"
  input: "cnn_model/StatefulPartitionedCall/StatefulPartitionedCall/dense_0/BiasAdd"
  attr {
    key: "T"
    value {
      type: DT_FLOAT
    }
  }
}
node {
  name: "Func/cnn_model/StatefulPartitionedCall/StatefulPartitionedCall/input/_124"
  op: "Identity"
  input: "Func/cnn_model/StatefulPartitionedCall/input/_52"
  input: "^Func/cnn_model/StatefulPartitionedCall/StatefulPartitionedCall/input_control_node/_71"
  attr {
    key: "T"
    value {
      type: DT_FLOAT
    }
  }
}
node {
  name: "cnn_model/StatefulPartitionedCall/StatefulPartitionedCall/batch_normalization0/Cast_1/ReadVariableOp"
  op: "Identity"
  input: "Func/cnn_model/StatefulPartitionedCall/StatefulPartitionedCall/input/_124"
  attr {
    key: "T"
    value {
      type: DT_FLOAT
    }
  }
}
node {
  name: "cnn_model/StatefulPartitionedCall/StatefulPartitionedCall/batch_normalization0/batchnorm/add/y"
  op: "Const"
  input: "^Func/cnn_model/StatefulPartitionedCall/StatefulPartitionedCall/input_control_node/_71"
  attr {
    key: "dtype"
    value {
      type: DT_FLOAT
    }
  }
  attr {
    key: "value"
    value {
      tensor {
        dtype: DT_FLOAT
        tensor_shape {
        }
        float_val: 0.0010000000474974513
      }
    }
  }
}
node {
  name: "cnn_model/StatefulPartitionedCall/StatefulPartitionedCall/batch_normalization0/batchnorm/add"
  op: "AddV2"
  input: "cnn_model/StatefulPartitionedCall/StatefulPartitionedCall/batch_normalization0/Cast_1/ReadVariableOp"
  input: "cnn_model/StatefulPartitionedCall/StatefulPartitionedCall/batch_normalization0/batchnorm/add/y"
  attr {
    key: "T"
    value {
      type: DT_FLOAT
    }
  }
}
node {
  name: "cnn_model/StatefulPartitionedCall/StatefulPartitionedCall/batch_normalization0/batchnorm/Rsqrt"
  op: "Rsqrt"
  input: "cnn_model/StatefulPartitionedCall/StatefulPartitionedCall/batch_normalization0/batchnorm/add"
  attr {
    key: "T"
    value {
      type: DT_FLOAT
    }
  }
}
node {
  name: "Func/cnn_model/StatefulPartitionedCall/StatefulPartitionedCall/input/_126"
  op: "Identity"
  input: "Func/cnn_model/StatefulPartitionedCall/input/_54"
  input: "^Func/cnn_model/StatefulPartitionedCall/StatefulPartitionedCall/input_control_node/_71"
  attr {
    key: "T"
    value {
      type: DT_FLOAT
    }
  }
}
node {
  name: "cnn_model/StatefulPartitionedCall/StatefulPartitionedCall/batch_normalization0/Cast_3/ReadVariableOp"
  op: "Identity"
  input: "Func/cnn_model/StatefulPartitionedCall/StatefulPartitionedCall/input/_126"
  attr {
    key: "T"
    value {
      type: DT_FLOAT
    }
  }
}
node {
  name: "cnn_model/StatefulPartitionedCall/StatefulPartitionedCall/batch_normalization0/batchnorm/mul"
  op: "Mul"
  input: "cnn_model/StatefulPartitionedCall/StatefulPartitionedCall/batch_normalization0/batchnorm/Rsqrt"
  input: "cnn_model/StatefulPartitionedCall/StatefulPartitionedCall/batch_normalization0/Cast_3/ReadVariableOp"
  attr {
    key: "T"
    value {
      type: DT_FLOAT
    }
  }
}
node {
  name: "cnn_model/StatefulPartitionedCall/StatefulPartitionedCall/batch_normalization0/batchnorm/mul_1"
  op: "Mul"
  input: "cnn_model/StatefulPartitionedCall/StatefulPartitionedCall/dense_0/Relu"
  input: "cnn_model/StatefulPartitionedCall/StatefulPartitionedCall/batch_normalization0/batchnorm/mul"
  attr {
    key: "T"
    value {
      type: DT_FLOAT
    }
  }
}
node {
  name: "Func/cnn_model/StatefulPartitionedCall/StatefulPartitionedCall/input/_125"
  op: "Identity"
  input: "Func/cnn_model/StatefulPartitionedCall/input/_53"
  input: "^Func/cnn_model/StatefulPartitionedCall/StatefulPartitionedCall/input_control_node/_71"
  attr {
    key: "T"
    value {
      type: DT_FLOAT
    }
  }
}
node {
  name: "cnn_model/StatefulPartitionedCall/StatefulPartitionedCall/batch_normalization0/Cast_2/ReadVariableOp"
  op: "Identity"
  input: "Func/cnn_model/StatefulPartitionedCall/StatefulPartitionedCall/input/_125"
  attr {
    key: "T"
    value {
      type: DT_FLOAT
    }
  }
}
node {
  name: "Func/cnn_model/StatefulPartitionedCall/StatefulPartitionedCall/input/_123"
  op: "Identity"
  input: "Func/cnn_model/StatefulPartitionedCall/input/_51"
  input: "^Func/cnn_model/StatefulPartitionedCall/StatefulPartitionedCall/input_control_node/_71"
  attr {
    key: "T"
    value {
      type: DT_FLOAT
    }
  }
}
node {
  name: "cnn_model/StatefulPartitionedCall/StatefulPartitionedCall/batch_normalization0/Cast/ReadVariableOp"
  op: "Identity"
  input: "Func/cnn_model/StatefulPartitionedCall/StatefulPartitionedCall/input/_123"
  attr {
    key: "T"
    value {
      type: DT_FLOAT
    }
  }
}
node {
  name: "cnn_model/StatefulPartitionedCall/StatefulPartitionedCall/batch_normalization0/batchnorm/mul_2"
  op: "Mul"
  input: "cnn_model/StatefulPartitionedCall/StatefulPartitionedCall/batch_normalization0/Cast/ReadVariableOp"
  input: "cnn_model/StatefulPartitionedCall/StatefulPartitionedCall/batch_normalization0/batchnorm/mul"
  attr {
    key: "T"
    value {
      type: DT_FLOAT
    }
  }
}
node {
  name: "cnn_model/StatefulPartitionedCall/StatefulPartitionedCall/batch_normalization0/batchnorm/sub"
  op: "Sub"
  input: "cnn_model/StatefulPartitionedCall/StatefulPartitionedCall/batch_normalization0/Cast_2/ReadVariableOp"
  input: "cnn_model/StatefulPartitionedCall/StatefulPartitionedCall/batch_normalization0/batchnorm/mul_2"
  attr {
    key: "T"
    value {
      type: DT_FLOAT
    }
  }
}
node {
  name: "cnn_model/StatefulPartitionedCall/StatefulPartitionedCall/batch_normalization0/batchnorm/add_1"
  op: "AddV2"
  input: "cnn_model/StatefulPartitionedCall/StatefulPartitionedCall/batch_normalization0/batchnorm/mul_1"
  input: "cnn_model/StatefulPartitionedCall/StatefulPartitionedCall/batch_normalization0/batchnorm/sub"
  attr {
    key: "T"
    value {
      type: DT_FLOAT
    }
  }
}
node {
  name: "Func/cnn_model/StatefulPartitionedCall/StatefulPartitionedCall/input/_127"
  op: "Identity"
  input: "Func/cnn_model/StatefulPartitionedCall/input/_55"
  input: "^Func/cnn_model/StatefulPartitionedCall/StatefulPartitionedCall/input_control_node/_71"
  attr {
    key: "T"
    value {
      type: DT_FLOAT
    }
  }
}
node {
  name: "cnn_model/StatefulPartitionedCall/StatefulPartitionedCall/dense_1/MatMul/ReadVariableOp"
  op: "Identity"
  input: "Func/cnn_model/StatefulPartitionedCall/StatefulPartitionedCall/input/_127"
  attr {
    key: "T"
    value {
      type: DT_FLOAT
    }
  }
}
node {
  name: "cnn_model/StatefulPartitionedCall/StatefulPartitionedCall/dense_1/MatMul"
  op: "MatMul"
  input: "cnn_model/StatefulPartitionedCall/StatefulPartitionedCall/batch_normalization0/batchnorm/add_1"
  input: "cnn_model/StatefulPartitionedCall/StatefulPartitionedCall/dense_1/MatMul/ReadVariableOp"
  attr {
    key: "T"
    value {
      type: DT_FLOAT
    }
  }
  attr {
    key: "transpose_a"
    value {
      b: false
    }
  }
  attr {
    key: "transpose_b"
    value {
      b: false
    }
  }
}
node {
  name: "Func/cnn_model/StatefulPartitionedCall/StatefulPartitionedCall/input/_128"
  op: "Identity"
  input: "Func/cnn_model/StatefulPartitionedCall/input/_56"
  input: "^Func/cnn_model/StatefulPartitionedCall/StatefulPartitionedCall/input_control_node/_71"
  attr {
    key: "T"
    value {
      type: DT_FLOAT
    }
  }
}
node {
  name: "cnn_model/StatefulPartitionedCall/StatefulPartitionedCall/dense_1/BiasAdd/ReadVariableOp"
  op: "Identity"
  input: "Func/cnn_model/StatefulPartitionedCall/StatefulPartitionedCall/input/_128"
  attr {
    key: "T"
    value {
      type: DT_FLOAT
    }
  }
}
node {
  name: "cnn_model/StatefulPartitionedCall/StatefulPartitionedCall/dense_1/BiasAdd"
  op: "BiasAdd"
  input: "cnn_model/StatefulPartitionedCall/StatefulPartitionedCall/dense_1/MatMul"
  input: "cnn_model/StatefulPartitionedCall/StatefulPartitionedCall/dense_1/BiasAdd/ReadVariableOp"
  attr {
    key: "T"
    value {
      type: DT_FLOAT
    }
  }
  attr {
    key: "data_format"
    value {
      s: "NHWC"
    }
  }
}
node {
  name: "cnn_model/StatefulPartitionedCall/StatefulPartitionedCall/dense_1/Relu"
  op: "Relu"
  input: "cnn_model/StatefulPartitionedCall/StatefulPartitionedCall/dense_1/BiasAdd"
  attr {
    key: "T"
    value {
      type: DT_FLOAT
    }
  }
}
node {
  name: "Func/cnn_model/StatefulPartitionedCall/StatefulPartitionedCall/input/_130"
  op: "Identity"
  input: "Func/cnn_model/StatefulPartitionedCall/input/_58"
  input: "^Func/cnn_model/StatefulPartitionedCall/StatefulPartitionedCall/input_control_node/_71"
  attr {
    key: "T"
    value {
      type: DT_FLOAT
    }
  }
}
node {
  name: "cnn_model/StatefulPartitionedCall/StatefulPartitionedCall/batch_normalization1/Cast_1/ReadVariableOp"
  op: "Identity"
  input: "Func/cnn_model/StatefulPartitionedCall/StatefulPartitionedCall/input/_130"
  attr {
    key: "T"
    value {
      type: DT_FLOAT
    }
  }
}
node {
  name: "cnn_model/StatefulPartitionedCall/StatefulPartitionedCall/batch_normalization1/batchnorm/add/y"
  op: "Const"
  input: "^Func/cnn_model/StatefulPartitionedCall/StatefulPartitionedCall/input_control_node/_71"
  attr {
    key: "dtype"
    value {
      type: DT_FLOAT
    }
  }
  attr {
    key: "value"
    value {
      tensor {
        dtype: DT_FLOAT
        tensor_shape {
        }
        float_val: 0.0010000000474974513
      }
    }
  }
}
node {
  name: "cnn_model/StatefulPartitionedCall/StatefulPartitionedCall/batch_normalization1/batchnorm/add"
  op: "AddV2"
  input: "cnn_model/StatefulPartitionedCall/StatefulPartitionedCall/batch_normalization1/Cast_1/ReadVariableOp"
  input: "cnn_model/StatefulPartitionedCall/StatefulPartitionedCall/batch_normalization1/batchnorm/add/y"
  attr {
    key: "T"
    value {
      type: DT_FLOAT
    }
  }
}
node {
  name: "cnn_model/StatefulPartitionedCall/StatefulPartitionedCall/batch_normalization1/batchnorm/Rsqrt"
  op: "Rsqrt"
  input: "cnn_model/StatefulPartitionedCall/StatefulPartitionedCall/batch_normalization1/batchnorm/add"
  attr {
    key: "T"
    value {
      type: DT_FLOAT
    }
  }
}
node {
  name: "Func/cnn_model/StatefulPartitionedCall/StatefulPartitionedCall/input/_132"
  op: "Identity"
  input: "Func/cnn_model/StatefulPartitionedCall/input/_60"
  input: "^Func/cnn_model/StatefulPartitionedCall/StatefulPartitionedCall/input_control_node/_71"
  attr {
    key: "T"
    value {
      type: DT_FLOAT
    }
  }
}
node {
  name: "cnn_model/StatefulPartitionedCall/StatefulPartitionedCall/batch_normalization1/Cast_3/ReadVariableOp"
  op: "Identity"
  input: "Func/cnn_model/StatefulPartitionedCall/StatefulPartitionedCall/input/_132"
  attr {
    key: "T"
    value {
      type: DT_FLOAT
    }
  }
}
node {
  name: "cnn_model/StatefulPartitionedCall/StatefulPartitionedCall/batch_normalization1/batchnorm/mul"
  op: "Mul"
  input: "cnn_model/StatefulPartitionedCall/StatefulPartitionedCall/batch_normalization1/batchnorm/Rsqrt"
  input: "cnn_model/StatefulPartitionedCall/StatefulPartitionedCall/batch_normalization1/Cast_3/ReadVariableOp"
  attr {
    key: "T"
    value {
      type: DT_FLOAT
    }
  }
}
node {
  name: "cnn_model/StatefulPartitionedCall/StatefulPartitionedCall/batch_normalization1/batchnorm/mul_1"
  op: "Mul"
  input: "cnn_model/StatefulPartitionedCall/StatefulPartitionedCall/dense_1/Relu"
  input: "cnn_model/StatefulPartitionedCall/StatefulPartitionedCall/batch_normalization1/batchnorm/mul"
  attr {
    key: "T"
    value {
      type: DT_FLOAT
    }
  }
}
node {
  name: "Func/cnn_model/StatefulPartitionedCall/StatefulPartitionedCall/input/_131"
  op: "Identity"
  input: "Func/cnn_model/StatefulPartitionedCall/input/_59"
  input: "^Func/cnn_model/StatefulPartitionedCall/StatefulPartitionedCall/input_control_node/_71"
  attr {
    key: "T"
    value {
      type: DT_FLOAT
    }
  }
}
node {
  name: "cnn_model/StatefulPartitionedCall/StatefulPartitionedCall/batch_normalization1/Cast_2/ReadVariableOp"
  op: "Identity"
  input: "Func/cnn_model/StatefulPartitionedCall/StatefulPartitionedCall/input/_131"
  attr {
    key: "T"
    value {
      type: DT_FLOAT
    }
  }
}
node {
  name: "Func/cnn_model/StatefulPartitionedCall/StatefulPartitionedCall/input/_129"
  op: "Identity"
  input: "Func/cnn_model/StatefulPartitionedCall/input/_57"
  input: "^Func/cnn_model/StatefulPartitionedCall/StatefulPartitionedCall/input_control_node/_71"
  attr {
    key: "T"
    value {
      type: DT_FLOAT
    }
  }
}
node {
  name: "cnn_model/StatefulPartitionedCall/StatefulPartitionedCall/batch_normalization1/Cast/ReadVariableOp"
  op: "Identity"
  input: "Func/cnn_model/StatefulPartitionedCall/StatefulPartitionedCall/input/_129"
  attr {
    key: "T"
    value {
      type: DT_FLOAT
    }
  }
}
node {
  name: "cnn_model/StatefulPartitionedCall/StatefulPartitionedCall/batch_normalization1/batchnorm/mul_2"
  op: "Mul"
  input: "cnn_model/StatefulPartitionedCall/StatefulPartitionedCall/batch_normalization1/Cast/ReadVariableOp"
  input: "cnn_model/StatefulPartitionedCall/StatefulPartitionedCall/batch_normalization1/batchnorm/mul"
  attr {
    key: "T"
    value {
      type: DT_FLOAT
    }
  }
}
node {
  name: "cnn_model/StatefulPartitionedCall/StatefulPartitionedCall/batch_normalization1/batchnorm/sub"
  op: "Sub"
  input: "cnn_model/StatefulPartitionedCall/StatefulPartitionedCall/batch_normalization1/Cast_2/ReadVariableOp"
  input: "cnn_model/StatefulPartitionedCall/StatefulPartitionedCall/batch_normalization1/batchnorm/mul_2"
  attr {
    key: "T"
    value {
      type: DT_FLOAT
    }
  }
}
node {
  name: "cnn_model/StatefulPartitionedCall/StatefulPartitionedCall/batch_normalization1/batchnorm/add_1"
  op: "AddV2"
  input: "cnn_model/StatefulPartitionedCall/StatefulPartitionedCall/batch_normalization1/batchnorm/mul_1"
  input: "cnn_model/StatefulPartitionedCall/StatefulPartitionedCall/batch_normalization1/batchnorm/sub"
  attr {
    key: "T"
    value {
      type: DT_FLOAT
    }
  }
}
node {
  name: "Func/cnn_model/StatefulPartitionedCall/StatefulPartitionedCall/input/_133"
  op: "Identity"
  input: "Func/cnn_model/StatefulPartitionedCall/input/_61"
  input: "^Func/cnn_model/StatefulPartitionedCall/StatefulPartitionedCall/input_control_node/_71"
  attr {
    key: "T"
    value {
      type: DT_FLOAT
    }
  }
}
node {
  name: "cnn_model/StatefulPartitionedCall/StatefulPartitionedCall/dense_2/MatMul/ReadVariableOp"
  op: "Identity"
  input: "Func/cnn_model/StatefulPartitionedCall/StatefulPartitionedCall/input/_133"
  attr {
    key: "T"
    value {
      type: DT_FLOAT
    }
  }
}
node {
  name: "cnn_model/StatefulPartitionedCall/StatefulPartitionedCall/dense_2/MatMul"
  op: "MatMul"
  input: "cnn_model/StatefulPartitionedCall/StatefulPartitionedCall/batch_normalization1/batchnorm/add_1"
  input: "cnn_model/StatefulPartitionedCall/StatefulPartitionedCall/dense_2/MatMul/ReadVariableOp"
  attr {
    key: "T"
    value {
      type: DT_FLOAT
    }
  }
  attr {
    key: "transpose_a"
    value {
      b: false
    }
  }
  attr {
    key: "transpose_b"
    value {
      b: false
    }
  }
}
node {
  name: "Func/cnn_model/StatefulPartitionedCall/StatefulPartitionedCall/input/_134"
  op: "Identity"
  input: "Func/cnn_model/StatefulPartitionedCall/input/_62"
  input: "^Func/cnn_model/StatefulPartitionedCall/StatefulPartitionedCall/input_control_node/_71"
  attr {
    key: "T"
    value {
      type: DT_FLOAT
    }
  }
}
node {
  name: "cnn_model/StatefulPartitionedCall/StatefulPartitionedCall/dense_2/BiasAdd/ReadVariableOp"
  op: "Identity"
  input: "Func/cnn_model/StatefulPartitionedCall/StatefulPartitionedCall/input/_134"
  attr {
    key: "T"
    value {
      type: DT_FLOAT
    }
  }
}
node {
  name: "cnn_model/StatefulPartitionedCall/StatefulPartitionedCall/dense_2/BiasAdd"
  op: "BiasAdd"
  input: "cnn_model/StatefulPartitionedCall/StatefulPartitionedCall/dense_2/MatMul"
  input: "cnn_model/StatefulPartitionedCall/StatefulPartitionedCall/dense_2/BiasAdd/ReadVariableOp"
  attr {
    key: "T"
    value {
      type: DT_FLOAT
    }
  }
  attr {
    key: "data_format"
    value {
      s: "NHWC"
    }
  }
}
node {
  name: "cnn_model/StatefulPartitionedCall/StatefulPartitionedCall/dense_2/Relu"
  op: "Relu"
  input: "cnn_model/StatefulPartitionedCall/StatefulPartitionedCall/dense_2/BiasAdd"
  attr {
    key: "T"
    value {
      type: DT_FLOAT
    }
  }
}
node {
  name: "Func/cnn_model/StatefulPartitionedCall/StatefulPartitionedCall/input/_136"
  op: "Identity"
  input: "Func/cnn_model/StatefulPartitionedCall/input/_64"
  input: "^Func/cnn_model/StatefulPartitionedCall/StatefulPartitionedCall/input_control_node/_71"
  attr {
    key: "T"
    value {
      type: DT_FLOAT
    }
  }
}
node {
  name: "cnn_model/StatefulPartitionedCall/StatefulPartitionedCall/batch_normalization2/Cast_1/ReadVariableOp"
  op: "Identity"
  input: "Func/cnn_model/StatefulPartitionedCall/StatefulPartitionedCall/input/_136"
  attr {
    key: "T"
    value {
      type: DT_FLOAT
    }
  }
}
node {
  name: "cnn_model/StatefulPartitionedCall/StatefulPartitionedCall/batch_normalization2/batchnorm/add/y"
  op: "Const"
  input: "^Func/cnn_model/StatefulPartitionedCall/StatefulPartitionedCall/input_control_node/_71"
  attr {
    key: "dtype"
    value {
      type: DT_FLOAT
    }
  }
  attr {
    key: "value"
    value {
      tensor {
        dtype: DT_FLOAT
        tensor_shape {
        }
        float_val: 0.0010000000474974513
      }
    }
  }
}
node {
  name: "cnn_model/StatefulPartitionedCall/StatefulPartitionedCall/batch_normalization2/batchnorm/add"
  op: "AddV2"
  input: "cnn_model/StatefulPartitionedCall/StatefulPartitionedCall/batch_normalization2/Cast_1/ReadVariableOp"
  input: "cnn_model/StatefulPartitionedCall/StatefulPartitionedCall/batch_normalization2/batchnorm/add/y"
  attr {
    key: "T"
    value {
      type: DT_FLOAT
    }
  }
}
node {
  name: "cnn_model/StatefulPartitionedCall/StatefulPartitionedCall/batch_normalization2/batchnorm/Rsqrt"
  op: "Rsqrt"
  input: "cnn_model/StatefulPartitionedCall/StatefulPartitionedCall/batch_normalization2/batchnorm/add"
  attr {
    key: "T"
    value {
      type: DT_FLOAT
    }
  }
}
node {
  name: "Func/cnn_model/StatefulPartitionedCall/StatefulPartitionedCall/input/_138"
  op: "Identity"
  input: "Func/cnn_model/StatefulPartitionedCall/input/_66"
  input: "^Func/cnn_model/StatefulPartitionedCall/StatefulPartitionedCall/input_control_node/_71"
  attr {
    key: "T"
    value {
      type: DT_FLOAT
    }
  }
}
node {
  name: "cnn_model/StatefulPartitionedCall/StatefulPartitionedCall/batch_normalization2/Cast_3/ReadVariableOp"
  op: "Identity"
  input: "Func/cnn_model/StatefulPartitionedCall/StatefulPartitionedCall/input/_138"
  attr {
    key: "T"
    value {
      type: DT_FLOAT
    }
  }
}
node {
  name: "cnn_model/StatefulPartitionedCall/StatefulPartitionedCall/batch_normalization2/batchnorm/mul"
  op: "Mul"
  input: "cnn_model/StatefulPartitionedCall/StatefulPartitionedCall/batch_normalization2/batchnorm/Rsqrt"
  input: "cnn_model/StatefulPartitionedCall/StatefulPartitionedCall/batch_normalization2/Cast_3/ReadVariableOp"
  attr {
    key: "T"
    value {
      type: DT_FLOAT
    }
  }
}
node {
  name: "cnn_model/StatefulPartitionedCall/StatefulPartitionedCall/batch_normalization2/batchnorm/mul_1"
  op: "Mul"
  input: "cnn_model/StatefulPartitionedCall/StatefulPartitionedCall/dense_2/Relu"
  input: "cnn_model/StatefulPartitionedCall/StatefulPartitionedCall/batch_normalization2/batchnorm/mul"
  attr {
    key: "T"
    value {
      type: DT_FLOAT
    }
  }
}
node {
  name: "Func/cnn_model/StatefulPartitionedCall/StatefulPartitionedCall/input/_137"
  op: "Identity"
  input: "Func/cnn_model/StatefulPartitionedCall/input/_65"
  input: "^Func/cnn_model/StatefulPartitionedCall/StatefulPartitionedCall/input_control_node/_71"
  attr {
    key: "T"
    value {
      type: DT_FLOAT
    }
  }
}
node {
  name: "cnn_model/StatefulPartitionedCall/StatefulPartitionedCall/batch_normalization2/Cast_2/ReadVariableOp"
  op: "Identity"
  input: "Func/cnn_model/StatefulPartitionedCall/StatefulPartitionedCall/input/_137"
  attr {
    key: "T"
    value {
      type: DT_FLOAT
    }
  }
}
node {
  name: "Func/cnn_model/StatefulPartitionedCall/StatefulPartitionedCall/input/_135"
  op: "Identity"
  input: "Func/cnn_model/StatefulPartitionedCall/input/_63"
  input: "^Func/cnn_model/StatefulPartitionedCall/StatefulPartitionedCall/input_control_node/_71"
  attr {
    key: "T"
    value {
      type: DT_FLOAT
    }
  }
}
node {
  name: "cnn_model/StatefulPartitionedCall/StatefulPartitionedCall/batch_normalization2/Cast/ReadVariableOp"
  op: "Identity"
  input: "Func/cnn_model/StatefulPartitionedCall/StatefulPartitionedCall/input/_135"
  attr {
    key: "T"
    value {
      type: DT_FLOAT
    }
  }
}
node {
  name: "cnn_model/StatefulPartitionedCall/StatefulPartitionedCall/batch_normalization2/batchnorm/mul_2"
  op: "Mul"
  input: "cnn_model/StatefulPartitionedCall/StatefulPartitionedCall/batch_normalization2/Cast/ReadVariableOp"
  input: "cnn_model/StatefulPartitionedCall/StatefulPartitionedCall/batch_normalization2/batchnorm/mul"
  attr {
    key: "T"
    value {
      type: DT_FLOAT
    }
  }
}
node {
  name: "cnn_model/StatefulPartitionedCall/StatefulPartitionedCall/batch_normalization2/batchnorm/sub"
  op: "Sub"
  input: "cnn_model/StatefulPartitionedCall/StatefulPartitionedCall/batch_normalization2/Cast_2/ReadVariableOp"
  input: "cnn_model/StatefulPartitionedCall/StatefulPartitionedCall/batch_normalization2/batchnorm/mul_2"
  attr {
    key: "T"
    value {
      type: DT_FLOAT
    }
  }
}
node {
  name: "cnn_model/StatefulPartitionedCall/StatefulPartitionedCall/batch_normalization2/batchnorm/add_1"
  op: "AddV2"
  input: "cnn_model/StatefulPartitionedCall/StatefulPartitionedCall/batch_normalization2/batchnorm/mul_1"
  input: "cnn_model/StatefulPartitionedCall/StatefulPartitionedCall/batch_normalization2/batchnorm/sub"
  attr {
    key: "T"
    value {
      type: DT_FLOAT
    }
  }
}
node {
  name: "Func/cnn_model/StatefulPartitionedCall/StatefulPartitionedCall/input/_139"
  op: "Identity"
  input: "Func/cnn_model/StatefulPartitionedCall/input/_67"
  input: "^Func/cnn_model/StatefulPartitionedCall/StatefulPartitionedCall/input_control_node/_71"
  attr {
    key: "T"
    value {
      type: DT_FLOAT
    }
  }
}
node {
  name: "cnn_model/StatefulPartitionedCall/StatefulPartitionedCall/output/MatMul/ReadVariableOp"
  op: "Identity"
  input: "Func/cnn_model/StatefulPartitionedCall/StatefulPartitionedCall/input/_139"
  attr {
    key: "T"
    value {
      type: DT_FLOAT
    }
  }
}
node {
  name: "cnn_model/StatefulPartitionedCall/StatefulPartitionedCall/output/MatMul"
  op: "MatMul"
  input: "cnn_model/StatefulPartitionedCall/StatefulPartitionedCall/batch_normalization2/batchnorm/add_1"
  input: "cnn_model/StatefulPartitionedCall/StatefulPartitionedCall/output/MatMul/ReadVariableOp"
  attr {
    key: "T"
    value {
      type: DT_FLOAT
    }
  }
  attr {
    key: "transpose_a"
    value {
      b: false
    }
  }
  attr {
    key: "transpose_b"
    value {
      b: false
    }
  }
}
node {
  name: "Func/cnn_model/StatefulPartitionedCall/StatefulPartitionedCall/input/_140"
  op: "Identity"
  input: "Func/cnn_model/StatefulPartitionedCall/input/_68"
  input: "^Func/cnn_model/StatefulPartitionedCall/StatefulPartitionedCall/input_control_node/_71"
  attr {
    key: "T"
    value {
      type: DT_FLOAT
    }
  }
}
node {
  name: "cnn_model/StatefulPartitionedCall/StatefulPartitionedCall/output/BiasAdd/ReadVariableOp"
  op: "Identity"
  input: "Func/cnn_model/StatefulPartitionedCall/StatefulPartitionedCall/input/_140"
  attr {
    key: "T"
    value {
      type: DT_FLOAT
    }
  }
}
node {
  name: "cnn_model/StatefulPartitionedCall/StatefulPartitionedCall/output/BiasAdd"
  op: "BiasAdd"
  input: "cnn_model/StatefulPartitionedCall/StatefulPartitionedCall/output/MatMul"
  input: "cnn_model/StatefulPartitionedCall/StatefulPartitionedCall/output/BiasAdd/ReadVariableOp"
  attr {
    key: "T"
    value {
      type: DT_FLOAT
    }
  }
  attr {
    key: "data_format"
    value {
      s: "NHWC"
    }
  }
}
node {
  name: "cnn_model/StatefulPartitionedCall/StatefulPartitionedCall/output/Sigmoid"
  op: "Sigmoid"
  input: "cnn_model/StatefulPartitionedCall/StatefulPartitionedCall/output/BiasAdd"
  attr {
    key: "T"
    value {
      type: DT_FLOAT
    }
  }
}
node {
  name: "cnn_model/StatefulPartitionedCall/StatefulPartitionedCall/Identity"
  op: "Identity"
  input: "cnn_model/StatefulPartitionedCall/StatefulPartitionedCall/output/Sigmoid"
  input: "^cnn_model/StatefulPartitionedCall/StatefulPartitionedCall/CNN1x1_0/BiasAdd/ReadVariableOp"
  input: "^cnn_model/StatefulPartitionedCall/StatefulPartitionedCall/CNN1x1_0/Conv2D/ReadVariableOp"
  input: "^cnn_model/StatefulPartitionedCall/StatefulPartitionedCall/CNN1x1_1/BiasAdd/ReadVariableOp"
  input: "^cnn_model/StatefulPartitionedCall/StatefulPartitionedCall/CNN1x1_1/Conv2D/ReadVariableOp"
  input: "^cnn_model/StatefulPartitionedCall/StatefulPartitionedCall/CNN1x1_2/BiasAdd/ReadVariableOp"
  input: "^cnn_model/StatefulPartitionedCall/StatefulPartitionedCall/CNN1x1_2/Conv2D/ReadVariableOp"
  input: "^cnn_model/StatefulPartitionedCall/StatefulPartitionedCall/CNN1x1_3/BiasAdd/ReadVariableOp"
  input: "^cnn_model/StatefulPartitionedCall/StatefulPartitionedCall/CNN1x1_3/Conv2D/ReadVariableOp"
  input: "^cnn_model/StatefulPartitionedCall/StatefulPartitionedCall/CNN2x2_0/BiasAdd/ReadVariableOp"
  input: "^cnn_model/StatefulPartitionedCall/StatefulPartitionedCall/CNN2x2_0/Conv2D/ReadVariableOp"
  input: "^cnn_model/StatefulPartitionedCall/StatefulPartitionedCall/CNN2x2_1/BiasAdd/ReadVariableOp"
  input: "^cnn_model/StatefulPartitionedCall/StatefulPartitionedCall/CNN2x2_1/Conv2D/ReadVariableOp"
  input: "^cnn_model/StatefulPartitionedCall/StatefulPartitionedCall/CNN2x2_2/BiasAdd/ReadVariableOp"
  input: "^cnn_model/StatefulPartitionedCall/StatefulPartitionedCall/CNN2x2_2/Conv2D/ReadVariableOp"
  input: "^cnn_model/StatefulPartitionedCall/StatefulPartitionedCall/CNN2x2_3/BiasAdd/ReadVariableOp"
  input: "^cnn_model/StatefulPartitionedCall/StatefulPartitionedCall/CNN2x2_3/Conv2D/ReadVariableOp"
  input: "^cnn_model/StatefulPartitionedCall/StatefulPartitionedCall/batch_normalization0/Cast/ReadVariableOp"
  input: "^cnn_model/StatefulPartitionedCall/StatefulPartitionedCall/batch_normalization0/Cast_1/ReadVariableOp"
  input: "^cnn_model/StatefulPartitionedCall/StatefulPartitionedCall/batch_normalization0/Cast_2/ReadVariableOp"
  input: "^cnn_model/StatefulPartitionedCall/StatefulPartitionedCall/batch_normalization0/Cast_3/ReadVariableOp"
  input: "^cnn_model/StatefulPartitionedCall/StatefulPartitionedCall/batch_normalization1/Cast/ReadVariableOp"
  input: "^cnn_model/StatefulPartitionedCall/StatefulPartitionedCall/batch_normalization1/Cast_1/ReadVariableOp"
  input: "^cnn_model/StatefulPartitionedCall/StatefulPartitionedCall/batch_normalization1/Cast_2/ReadVariableOp"
  input: "^cnn_model/StatefulPartitionedCall/StatefulPartitionedCall/batch_normalization1/Cast_3/ReadVariableOp"
  input: "^cnn_model/StatefulPartitionedCall/StatefulPartitionedCall/batch_normalization2/Cast/ReadVariableOp"
  input: "^cnn_model/StatefulPartitionedCall/StatefulPartitionedCall/batch_normalization2/Cast_1/ReadVariableOp"
  input: "^cnn_model/StatefulPartitionedCall/StatefulPartitionedCall/batch_normalization2/Cast_2/ReadVariableOp"
  input: "^cnn_model/StatefulPartitionedCall/StatefulPartitionedCall/batch_normalization2/Cast_3/ReadVariableOp"
  input: "^cnn_model/StatefulPartitionedCall/StatefulPartitionedCall/batch_normalization_CNN1x1_0/FusedBatchNormV3/ReadVariableOp"
  input: "^cnn_model/StatefulPartitionedCall/StatefulPartitionedCall/batch_normalization_CNN1x1_0/FusedBatchNormV3/ReadVariableOp_1"
  input: "^cnn_model/StatefulPartitionedCall/StatefulPartitionedCall/batch_normalization_CNN1x1_0/ReadVariableOp"
  input: "^cnn_model/StatefulPartitionedCall/StatefulPartitionedCall/batch_normalization_CNN1x1_0/ReadVariableOp_1"
  input: "^cnn_model/StatefulPartitionedCall/StatefulPartitionedCall/batch_normalization_CNN1x1_1/FusedBatchNormV3/ReadVariableOp"
  input: "^cnn_model/StatefulPartitionedCall/StatefulPartitionedCall/batch_normalization_CNN1x1_1/FusedBatchNormV3/ReadVariableOp_1"
  input: "^cnn_model/StatefulPartitionedCall/StatefulPartitionedCall/batch_normalization_CNN1x1_1/ReadVariableOp"
  input: "^cnn_model/StatefulPartitionedCall/StatefulPartitionedCall/batch_normalization_CNN1x1_1/ReadVariableOp_1"
  input: "^cnn_model/StatefulPartitionedCall/StatefulPartitionedCall/batch_normalization_CNN1x1_2/FusedBatchNormV3/ReadVariableOp"
  input: "^cnn_model/StatefulPartitionedCall/StatefulPartitionedCall/batch_normalization_CNN1x1_2/FusedBatchNormV3/ReadVariableOp_1"
  input: "^cnn_model/StatefulPartitionedCall/StatefulPartitionedCall/batch_normalization_CNN1x1_2/ReadVariableOp"
  input: "^cnn_model/StatefulPartitionedCall/StatefulPartitionedCall/batch_normalization_CNN1x1_2/ReadVariableOp_1"
  input: "^cnn_model/StatefulPartitionedCall/StatefulPartitionedCall/batch_normalization_CNN1x1_3/FusedBatchNormV3/ReadVariableOp"
  input: "^cnn_model/StatefulPartitionedCall/StatefulPartitionedCall/batch_normalization_CNN1x1_3/FusedBatchNormV3/ReadVariableOp_1"
  input: "^cnn_model/StatefulPartitionedCall/StatefulPartitionedCall/batch_normalization_CNN1x1_3/ReadVariableOp"
  input: "^cnn_model/StatefulPartitionedCall/StatefulPartitionedCall/batch_normalization_CNN1x1_3/ReadVariableOp_1"
  input: "^cnn_model/StatefulPartitionedCall/StatefulPartitionedCall/batch_normalization_CNN2x2_0/FusedBatchNormV3/ReadVariableOp"
  input: "^cnn_model/StatefulPartitionedCall/StatefulPartitionedCall/batch_normalization_CNN2x2_0/FusedBatchNormV3/ReadVariableOp_1"
  input: "^cnn_model/StatefulPartitionedCall/StatefulPartitionedCall/batch_normalization_CNN2x2_0/ReadVariableOp"
  input: "^cnn_model/StatefulPartitionedCall/StatefulPartitionedCall/batch_normalization_CNN2x2_0/ReadVariableOp_1"
  input: "^cnn_model/StatefulPartitionedCall/StatefulPartitionedCall/batch_normalization_CNN2x2_1/FusedBatchNormV3/ReadVariableOp"
  input: "^cnn_model/StatefulPartitionedCall/StatefulPartitionedCall/batch_normalization_CNN2x2_1/FusedBatchNormV3/ReadVariableOp_1"
  input: "^cnn_model/StatefulPartitionedCall/StatefulPartitionedCall/batch_normalization_CNN2x2_1/ReadVariableOp"
  input: "^cnn_model/StatefulPartitionedCall/StatefulPartitionedCall/batch_normalization_CNN2x2_1/ReadVariableOp_1"
  input: "^cnn_model/StatefulPartitionedCall/StatefulPartitionedCall/batch_normalization_CNN2x2_2/FusedBatchNormV3/ReadVariableOp"
  input: "^cnn_model/StatefulPartitionedCall/StatefulPartitionedCall/batch_normalization_CNN2x2_2/FusedBatchNormV3/ReadVariableOp_1"
  input: "^cnn_model/StatefulPartitionedCall/StatefulPartitionedCall/batch_normalization_CNN2x2_2/ReadVariableOp"
  input: "^cnn_model/StatefulPartitionedCall/StatefulPartitionedCall/batch_normalization_CNN2x2_2/ReadVariableOp_1"
  input: "^cnn_model/StatefulPartitionedCall/StatefulPartitionedCall/batch_normalization_CNN2x2_3/FusedBatchNormV3/ReadVariableOp"
  input: "^cnn_model/StatefulPartitionedCall/StatefulPartitionedCall/batch_normalization_CNN2x2_3/FusedBatchNormV3/ReadVariableOp_1"
  input: "^cnn_model/StatefulPartitionedCall/StatefulPartitionedCall/batch_normalization_CNN2x2_3/ReadVariableOp"
  input: "^cnn_model/StatefulPartitionedCall/StatefulPartitionedCall/batch_normalization_CNN2x2_3/ReadVariableOp_1"
  input: "^cnn_model/StatefulPartitionedCall/StatefulPartitionedCall/dense_0/BiasAdd/ReadVariableOp"
  input: "^cnn_model/StatefulPartitionedCall/StatefulPartitionedCall/dense_0/MatMul/ReadVariableOp"
  input: "^cnn_model/StatefulPartitionedCall/StatefulPartitionedCall/dense_1/BiasAdd/ReadVariableOp"
  input: "^cnn_model/StatefulPartitionedCall/StatefulPartitionedCall/dense_1/MatMul/ReadVariableOp"
  input: "^cnn_model/StatefulPartitionedCall/StatefulPartitionedCall/dense_2/BiasAdd/ReadVariableOp"
  input: "^cnn_model/StatefulPartitionedCall/StatefulPartitionedCall/dense_2/MatMul/ReadVariableOp"
  input: "^cnn_model/StatefulPartitionedCall/StatefulPartitionedCall/output/BiasAdd/ReadVariableOp"
  input: "^cnn_model/StatefulPartitionedCall/StatefulPartitionedCall/output/MatMul/ReadVariableOp"
  attr {
    key: "T"
    value {
      type: DT_FLOAT
    }
  }
}
node {
  name: "Func/cnn_model/StatefulPartitionedCall/StatefulPartitionedCall/output/_141"
  op: "Identity"
  input: "cnn_model/StatefulPartitionedCall/StatefulPartitionedCall/Identity"
  attr {
    key: "T"
    value {
      type: DT_FLOAT
    }
  }
}
node {
  name: "Func/cnn_model/StatefulPartitionedCall/StatefulPartitionedCall/output_control_node/_142"
  op: "NoOp"
  input: "^cnn_model/StatefulPartitionedCall/StatefulPartitionedCall/CNN1x1_0/BiasAdd/ReadVariableOp"
  input: "^cnn_model/StatefulPartitionedCall/StatefulPartitionedCall/CNN1x1_0/Conv2D/ReadVariableOp"
  input: "^cnn_model/StatefulPartitionedCall/StatefulPartitionedCall/CNN1x1_1/BiasAdd/ReadVariableOp"
  input: "^cnn_model/StatefulPartitionedCall/StatefulPartitionedCall/CNN1x1_1/Conv2D/ReadVariableOp"
  input: "^cnn_model/StatefulPartitionedCall/StatefulPartitionedCall/CNN1x1_2/BiasAdd/ReadVariableOp"
  input: "^cnn_model/StatefulPartitionedCall/StatefulPartitionedCall/CNN1x1_2/Conv2D/ReadVariableOp"
  input: "^cnn_model/StatefulPartitionedCall/StatefulPartitionedCall/CNN1x1_3/BiasAdd/ReadVariableOp"
  input: "^cnn_model/StatefulPartitionedCall/StatefulPartitionedCall/CNN1x1_3/Conv2D/ReadVariableOp"
  input: "^cnn_model/StatefulPartitionedCall/StatefulPartitionedCall/CNN2x2_0/BiasAdd/ReadVariableOp"
  input: "^cnn_model/StatefulPartitionedCall/StatefulPartitionedCall/CNN2x2_0/Conv2D/ReadVariableOp"
  input: "^cnn_model/StatefulPartitionedCall/StatefulPartitionedCall/CNN2x2_1/BiasAdd/ReadVariableOp"
  input: "^cnn_model/StatefulPartitionedCall/StatefulPartitionedCall/CNN2x2_1/Conv2D/ReadVariableOp"
  input: "^cnn_model/StatefulPartitionedCall/StatefulPartitionedCall/CNN2x2_2/BiasAdd/ReadVariableOp"
  input: "^cnn_model/StatefulPartitionedCall/StatefulPartitionedCall/CNN2x2_2/Conv2D/ReadVariableOp"
  input: "^cnn_model/StatefulPartitionedCall/StatefulPartitionedCall/CNN2x2_3/BiasAdd/ReadVariableOp"
  input: "^cnn_model/StatefulPartitionedCall/StatefulPartitionedCall/CNN2x2_3/Conv2D/ReadVariableOp"
  input: "^cnn_model/StatefulPartitionedCall/StatefulPartitionedCall/batch_normalization0/Cast/ReadVariableOp"
  input: "^cnn_model/StatefulPartitionedCall/StatefulPartitionedCall/batch_normalization0/Cast_1/ReadVariableOp"
  input: "^cnn_model/StatefulPartitionedCall/StatefulPartitionedCall/batch_normalization0/Cast_2/ReadVariableOp"
  input: "^cnn_model/StatefulPartitionedCall/StatefulPartitionedCall/batch_normalization0/Cast_3/ReadVariableOp"
  input: "^cnn_model/StatefulPartitionedCall/StatefulPartitionedCall/batch_normalization1/Cast/ReadVariableOp"
  input: "^cnn_model/StatefulPartitionedCall/StatefulPartitionedCall/batch_normalization1/Cast_1/ReadVariableOp"
  input: "^cnn_model/StatefulPartitionedCall/StatefulPartitionedCall/batch_normalization1/Cast_2/ReadVariableOp"
  input: "^cnn_model/StatefulPartitionedCall/StatefulPartitionedCall/batch_normalization1/Cast_3/ReadVariableOp"
  input: "^cnn_model/StatefulPartitionedCall/StatefulPartitionedCall/batch_normalization2/Cast/ReadVariableOp"
  input: "^cnn_model/StatefulPartitionedCall/StatefulPartitionedCall/batch_normalization2/Cast_1/ReadVariableOp"
  input: "^cnn_model/StatefulPartitionedCall/StatefulPartitionedCall/batch_normalization2/Cast_2/ReadVariableOp"
  input: "^cnn_model/StatefulPartitionedCall/StatefulPartitionedCall/batch_normalization2/Cast_3/ReadVariableOp"
  input: "^cnn_model/StatefulPartitionedCall/StatefulPartitionedCall/batch_normalization_CNN1x1_0/FusedBatchNormV3/ReadVariableOp"
  input: "^cnn_model/StatefulPartitionedCall/StatefulPartitionedCall/batch_normalization_CNN1x1_0/FusedBatchNormV3/ReadVariableOp_1"
  input: "^cnn_model/StatefulPartitionedCall/StatefulPartitionedCall/batch_normalization_CNN1x1_0/ReadVariableOp"
  input: "^cnn_model/StatefulPartitionedCall/StatefulPartitionedCall/batch_normalization_CNN1x1_0/ReadVariableOp_1"
  input: "^cnn_model/StatefulPartitionedCall/StatefulPartitionedCall/batch_normalization_CNN1x1_1/FusedBatchNormV3/ReadVariableOp"
  input: "^cnn_model/StatefulPartitionedCall/StatefulPartitionedCall/batch_normalization_CNN1x1_1/FusedBatchNormV3/ReadVariableOp_1"
  input: "^cnn_model/StatefulPartitionedCall/StatefulPartitionedCall/batch_normalization_CNN1x1_1/ReadVariableOp"
  input: "^cnn_model/StatefulPartitionedCall/StatefulPartitionedCall/batch_normalization_CNN1x1_1/ReadVariableOp_1"
  input: "^cnn_model/StatefulPartitionedCall/StatefulPartitionedCall/batch_normalization_CNN1x1_2/FusedBatchNormV3/ReadVariableOp"
  input: "^cnn_model/StatefulPartitionedCall/StatefulPartitionedCall/batch_normalization_CNN1x1_2/FusedBatchNormV3/ReadVariableOp_1"
  input: "^cnn_model/StatefulPartitionedCall/StatefulPartitionedCall/batch_normalization_CNN1x1_2/ReadVariableOp"
  input: "^cnn_model/StatefulPartitionedCall/StatefulPartitionedCall/batch_normalization_CNN1x1_2/ReadVariableOp_1"
  input: "^cnn_model/StatefulPartitionedCall/StatefulPartitionedCall/batch_normalization_CNN1x1_3/FusedBatchNormV3/ReadVariableOp"
  input: "^cnn_model/StatefulPartitionedCall/StatefulPartitionedCall/batch_normalization_CNN1x1_3/FusedBatchNormV3/ReadVariableOp_1"
  input: "^cnn_model/StatefulPartitionedCall/StatefulPartitionedCall/batch_normalization_CNN1x1_3/ReadVariableOp"
  input: "^cnn_model/StatefulPartitionedCall/StatefulPartitionedCall/batch_normalization_CNN1x1_3/ReadVariableOp_1"
  input: "^cnn_model/StatefulPartitionedCall/StatefulPartitionedCall/batch_normalization_CNN2x2_0/FusedBatchNormV3/ReadVariableOp"
  input: "^cnn_model/StatefulPartitionedCall/StatefulPartitionedCall/batch_normalization_CNN2x2_0/FusedBatchNormV3/ReadVariableOp_1"
  input: "^cnn_model/StatefulPartitionedCall/StatefulPartitionedCall/batch_normalization_CNN2x2_0/ReadVariableOp"
  input: "^cnn_model/StatefulPartitionedCall/StatefulPartitionedCall/batch_normalization_CNN2x2_0/ReadVariableOp_1"
  input: "^cnn_model/StatefulPartitionedCall/StatefulPartitionedCall/batch_normalization_CNN2x2_1/FusedBatchNormV3/ReadVariableOp"
  input: "^cnn_model/StatefulPartitionedCall/StatefulPartitionedCall/batch_normalization_CNN2x2_1/FusedBatchNormV3/ReadVariableOp_1"
  input: "^cnn_model/StatefulPartitionedCall/StatefulPartitionedCall/batch_normalization_CNN2x2_1/ReadVariableOp"
  input: "^cnn_model/StatefulPartitionedCall/StatefulPartitionedCall/batch_normalization_CNN2x2_1/ReadVariableOp_1"
  input: "^cnn_model/StatefulPartitionedCall/StatefulPartitionedCall/batch_normalization_CNN2x2_2/FusedBatchNormV3/ReadVariableOp"
  input: "^cnn_model/StatefulPartitionedCall/StatefulPartitionedCall/batch_normalization_CNN2x2_2/FusedBatchNormV3/ReadVariableOp_1"
  input: "^cnn_model/StatefulPartitionedCall/StatefulPartitionedCall/batch_normalization_CNN2x2_2/ReadVariableOp"
  input: "^cnn_model/StatefulPartitionedCall/StatefulPartitionedCall/batch_normalization_CNN2x2_2/ReadVariableOp_1"
  input: "^cnn_model/StatefulPartitionedCall/StatefulPartitionedCall/batch_normalization_CNN2x2_3/FusedBatchNormV3/ReadVariableOp"
  input: "^cnn_model/StatefulPartitionedCall/StatefulPartitionedCall/batch_normalization_CNN2x2_3/FusedBatchNormV3/ReadVariableOp_1"
  input: "^cnn_model/StatefulPartitionedCall/StatefulPartitionedCall/batch_normalization_CNN2x2_3/ReadVariableOp"
  input: "^cnn_model/StatefulPartitionedCall/StatefulPartitionedCall/batch_normalization_CNN2x2_3/ReadVariableOp_1"
  input: "^cnn_model/StatefulPartitionedCall/StatefulPartitionedCall/dense_0/BiasAdd/ReadVariableOp"
  input: "^cnn_model/StatefulPartitionedCall/StatefulPartitionedCall/dense_0/MatMul/ReadVariableOp"
  input: "^cnn_model/StatefulPartitionedCall/StatefulPartitionedCall/dense_1/BiasAdd/ReadVariableOp"
  input: "^cnn_model/StatefulPartitionedCall/StatefulPartitionedCall/dense_1/MatMul/ReadVariableOp"
  input: "^cnn_model/StatefulPartitionedCall/StatefulPartitionedCall/dense_2/BiasAdd/ReadVariableOp"
  input: "^cnn_model/StatefulPartitionedCall/StatefulPartitionedCall/dense_2/MatMul/ReadVariableOp"
  input: "^cnn_model/StatefulPartitionedCall/StatefulPartitionedCall/output/BiasAdd/ReadVariableOp"
  input: "^cnn_model/StatefulPartitionedCall/StatefulPartitionedCall/output/MatMul/ReadVariableOp"
}
node {
  name: "cnn_model/StatefulPartitionedCall/Identity"
  op: "Identity"
  input: "Func/cnn_model/StatefulPartitionedCall/StatefulPartitionedCall/output/_141"
  input: "^Func/cnn_model/StatefulPartitionedCall/StatefulPartitionedCall/output_control_node/_142"
  attr {
    key: "T"
    value {
      type: DT_FLOAT
    }
  }
}
node {
  name: "Func/cnn_model/StatefulPartitionedCall/output/_69"
  op: "Identity"
  input: "cnn_model/StatefulPartitionedCall/Identity"
  attr {
    key: "T"
    value {
      type: DT_FLOAT
    }
  }
}
node {
  name: "Func/cnn_model/StatefulPartitionedCall/output_control_node/_70"
  op: "NoOp"
  input: "^Func/cnn_model/StatefulPartitionedCall/StatefulPartitionedCall/output_control_node/_142"
}
node {
  name: "Identity"
  op: "Identity"
  input: "Func/cnn_model/StatefulPartitionedCall/output/_69"
  input: "^Func/cnn_model/StatefulPartitionedCall/output_control_node/_70"
  attr {
    key: "T"
    value {
      type: DT_FLOAT
    }
  }
}
versions {
  producer: 716
}
